node {
  name: "global_step/Initializer/zeros"
  op: "Const"
  attr {
    key: "_class"
    value {
      list {
        s: "loc:@global_step"
      }
    }
  }
  attr {
    key: "_output_shapes"
    value {
      list {
        shape {
        }
      }
    }
  }
  attr {
    key: "dtype"
    value {
      type: DT_INT64
    }
  }
  attr {
    key: "value"
    value {
      tensor {
        dtype: DT_INT64
        tensor_shape {
        }
        int64_val: 0
      }
    }
  }
}
node {
  name: "global_step"
  op: "VarHandleOp"
  attr {
    key: "_class"
    value {
      list {
        s: "loc:@global_step"
      }
    }
  }
  attr {
    key: "_output_shapes"
    value {
      list {
        shape {
        }
      }
    }
  }
  attr {
    key: "container"
    value {
      s: ""
    }
  }
  attr {
    key: "dtype"
    value {
      type: DT_INT64
    }
  }
  attr {
    key: "shape"
    value {
      shape {
      }
    }
  }
  attr {
    key: "shared_name"
    value {
      s: "global_step"
    }
  }
}
node {
  name: "global_step/IsInitialized/VarIsInitializedOp"
  op: "VarIsInitializedOp"
  input: "global_step"
  attr {
    key: "_output_shapes"
    value {
      list {
        shape {
        }
      }
    }
  }
}
node {
  name: "global_step/Assign"
  op: "AssignVariableOp"
  input: "global_step"
  input: "global_step/Initializer/zeros"
  attr {
    key: "_class"
    value {
      list {
        s: "loc:@global_step"
      }
    }
  }
  attr {
    key: "dtype"
    value {
      type: DT_INT64
    }
  }
}
node {
  name: "global_step/Read/ReadVariableOp"
  op: "ReadVariableOp"
  input: "global_step"
  attr {
    key: "_class"
    value {
      list {
        s: "loc:@global_step"
      }
    }
  }
  attr {
    key: "_output_shapes"
    value {
      list {
        shape {
        }
      }
    }
  }
  attr {
    key: "dtype"
    value {
      type: DT_INT64
    }
  }
}
node {
  name: "global_step/VarIsInitializedOp"
  op: "VarIsInitializedOp"
  input: "global_step"
  attr {
    key: "_output_shapes"
    value {
      list {
        shape {
        }
      }
    }
  }
}
node {
  name: "global_step/cond/Switch"
  op: "Switch"
  input: "global_step/VarIsInitializedOp"
  input: "global_step/VarIsInitializedOp"
  attr {
    key: "T"
    value {
      type: DT_BOOL
    }
  }
  attr {
    key: "_output_shapes"
    value {
      list {
        shape {
        }
        shape {
        }
      }
    }
  }
}
node {
  name: "global_step/cond/switch_t"
  op: "Identity"
  input: "global_step/cond/Switch:1"
  attr {
    key: "T"
    value {
      type: DT_BOOL
    }
  }
  attr {
    key: "_output_shapes"
    value {
      list {
        shape {
        }
      }
    }
  }
}
node {
  name: "global_step/cond/switch_f"
  op: "Identity"
  input: "global_step/cond/Switch"
  attr {
    key: "T"
    value {
      type: DT_BOOL
    }
  }
  attr {
    key: "_output_shapes"
    value {
      list {
        shape {
        }
      }
    }
  }
}
node {
  name: "global_step/cond/pred_id"
  op: "Identity"
  input: "global_step/VarIsInitializedOp"
  attr {
    key: "T"
    value {
      type: DT_BOOL
    }
  }
  attr {
    key: "_output_shapes"
    value {
      list {
        shape {
        }
      }
    }
  }
}
node {
  name: "global_step/cond/Read/ReadVariableOp"
  op: "ReadVariableOp"
  input: "global_step/cond/Read/ReadVariableOp/Switch:1"
  attr {
    key: "_output_shapes"
    value {
      list {
        shape {
        }
      }
    }
  }
  attr {
    key: "dtype"
    value {
      type: DT_INT64
    }
  }
}
node {
  name: "global_step/cond/Read/ReadVariableOp/Switch"
  op: "Switch"
  input: "global_step"
  input: "global_step/cond/pred_id"
  attr {
    key: "T"
    value {
      type: DT_RESOURCE
    }
  }
  attr {
    key: "_class"
    value {
      list {
        s: "loc:@global_step"
      }
    }
  }
  attr {
    key: "_output_shapes"
    value {
      list {
        shape {
        }
        shape {
        }
      }
    }
  }
}
node {
  name: "global_step/cond/Identity"
  op: "Identity"
  input: "global_step/cond/Read/ReadVariableOp"
  attr {
    key: "T"
    value {
      type: DT_INT64
    }
  }
  attr {
    key: "_output_shapes"
    value {
      list {
        shape {
        }
      }
    }
  }
}
node {
  name: "global_step/cond/Switch_1"
  op: "Switch"
  input: "global_step/Initializer/zeros"
  input: "global_step/cond/pred_id"
  attr {
    key: "T"
    value {
      type: DT_INT64
    }
  }
  attr {
    key: "_class"
    value {
      list {
        s: "loc:@global_step"
      }
    }
  }
  attr {
    key: "_output_shapes"
    value {
      list {
        shape {
        }
        shape {
        }
      }
    }
  }
}
node {
  name: "global_step/cond/Merge"
  op: "Merge"
  input: "global_step/cond/Switch_1"
  input: "global_step/cond/Identity"
  attr {
    key: "N"
    value {
      i: 2
    }
  }
  attr {
    key: "T"
    value {
      type: DT_INT64
    }
  }
  attr {
    key: "_output_shapes"
    value {
      list {
        shape {
        }
        shape {
        }
      }
    }
  }
}
node {
  name: "global_step/add/y"
  op: "Const"
  attr {
    key: "_output_shapes"
    value {
      list {
        shape {
        }
      }
    }
  }
  attr {
    key: "dtype"
    value {
      type: DT_INT64
    }
  }
  attr {
    key: "value"
    value {
      tensor {
        dtype: DT_INT64
        tensor_shape {
        }
        int64_val: 0
      }
    }
  }
}
node {
  name: "global_step/add"
  op: "Add"
  input: "global_step/cond/Merge"
  input: "global_step/add/y"
  attr {
    key: "T"
    value {
      type: DT_INT64
    }
  }
  attr {
    key: "_output_shapes"
    value {
      list {
        shape {
        }
      }
    }
  }
}
node {
  name: "Const"
  op: "Const"
  device: "/device:CPU:0"
  attr {
    key: "_output_shapes"
    value {
      list {
        shape {
          dim {
            size: 1
          }
        }
      }
    }
  }
  attr {
    key: "dtype"
    value {
      type: DT_STRING
    }
  }
  attr {
    key: "value"
    value {
      tensor {
        dtype: DT_STRING
        tensor_shape {
          dim {
            size: 1
          }
        }
        string_val: ".\\tmp\\tf_examples.tfrecord"
      }
    }
  }
}
node {
  name: "count"
  op: "Const"
  device: "/device:CPU:0"
  attr {
    key: "_output_shapes"
    value {
      list {
        shape {
        }
      }
    }
  }
  attr {
    key: "dtype"
    value {
      type: DT_INT64
    }
  }
  attr {
    key: "value"
    value {
      tensor {
        dtype: DT_INT64
        tensor_shape {
        }
        int64_val: -1
      }
    }
  }
}
node {
  name: "buffer_size"
  op: "Const"
  device: "/device:CPU:0"
  attr {
    key: "_output_shapes"
    value {
      list {
        shape {
        }
      }
    }
  }
  attr {
    key: "dtype"
    value {
      type: DT_INT64
    }
  }
  attr {
    key: "value"
    value {
      tensor {
        dtype: DT_INT64
        tensor_shape {
        }
        int64_val: 1
      }
    }
  }
}
node {
  name: "seed"
  op: "Const"
  device: "/device:CPU:0"
  attr {
    key: "_output_shapes"
    value {
      list {
        shape {
        }
      }
    }
  }
  attr {
    key: "dtype"
    value {
      type: DT_INT64
    }
  }
  attr {
    key: "value"
    value {
      tensor {
        dtype: DT_INT64
        tensor_shape {
        }
        int64_val: 0
      }
    }
  }
}
node {
  name: "seed2"
  op: "Const"
  device: "/device:CPU:0"
  attr {
    key: "_output_shapes"
    value {
      list {
        shape {
        }
      }
    }
  }
  attr {
    key: "dtype"
    value {
      type: DT_INT64
    }
  }
  attr {
    key: "value"
    value {
      tensor {
        dtype: DT_INT64
        tensor_shape {
        }
        int64_val: 0
      }
    }
  }
}
node {
  name: "cycle_length"
  op: "Const"
  device: "/device:CPU:0"
  attr {
    key: "_output_shapes"
    value {
      list {
        shape {
        }
      }
    }
  }
  attr {
    key: "dtype"
    value {
      type: DT_INT64
    }
  }
  attr {
    key: "value"
    value {
      tensor {
        dtype: DT_INT64
        tensor_shape {
        }
        int64_val: 1
      }
    }
  }
}
node {
  name: "block_length"
  op: "Const"
  device: "/device:CPU:0"
  attr {
    key: "_output_shapes"
    value {
      list {
        shape {
        }
      }
    }
  }
  attr {
    key: "dtype"
    value {
      type: DT_INT64
    }
  }
  attr {
    key: "value"
    value {
      tensor {
        dtype: DT_INT64
        tensor_shape {
        }
        int64_val: 1
      }
    }
  }
}
node {
  name: "sloppy"
  op: "Const"
  device: "/device:CPU:0"
  attr {
    key: "_output_shapes"
    value {
      list {
        shape {
        }
      }
    }
  }
  attr {
    key: "dtype"
    value {
      type: DT_BOOL
    }
  }
  attr {
    key: "value"
    value {
      tensor {
        dtype: DT_BOOL
        tensor_shape {
        }
        bool_val: true
      }
    }
  }
}
node {
  name: "buffer_output_elements"
  op: "Const"
  device: "/device:CPU:0"
  attr {
    key: "_output_shapes"
    value {
      list {
        shape {
        }
      }
    }
  }
  attr {
    key: "dtype"
    value {
      type: DT_INT64
    }
  }
  attr {
    key: "value"
    value {
      tensor {
        dtype: DT_INT64
        tensor_shape {
        }
        int64_val: 2
      }
    }
  }
}
node {
  name: "prefetch_input_elements"
  op: "Const"
  device: "/device:CPU:0"
  attr {
    key: "_output_shapes"
    value {
      list {
        shape {
        }
      }
    }
  }
  attr {
    key: "dtype"
    value {
      type: DT_INT64
    }
  }
  attr {
    key: "value"
    value {
      tensor {
        dtype: DT_INT64
        tensor_shape {
        }
        int64_val: 2
      }
    }
  }
}
node {
  name: "buffer_size_1"
  op: "Const"
  device: "/device:CPU:0"
  attr {
    key: "_output_shapes"
    value {
      list {
        shape {
        }
      }
    }
  }
  attr {
    key: "dtype"
    value {
      type: DT_INT64
    }
  }
  attr {
    key: "value"
    value {
      tensor {
        dtype: DT_INT64
        tensor_shape {
        }
        int64_val: 100
      }
    }
  }
}
node {
  name: "seed_1"
  op: "Const"
  device: "/device:CPU:0"
  attr {
    key: "_output_shapes"
    value {
      list {
        shape {
        }
      }
    }
  }
  attr {
    key: "dtype"
    value {
      type: DT_INT64
    }
  }
  attr {
    key: "value"
    value {
      tensor {
        dtype: DT_INT64
        tensor_shape {
        }
        int64_val: 0
      }
    }
  }
}
node {
  name: "seed2_1"
  op: "Const"
  device: "/device:CPU:0"
  attr {
    key: "_output_shapes"
    value {
      list {
        shape {
        }
      }
    }
  }
  attr {
    key: "dtype"
    value {
      type: DT_INT64
    }
  }
  attr {
    key: "value"
    value {
      tensor {
        dtype: DT_INT64
        tensor_shape {
        }
        int64_val: 0
      }
    }
  }
}
node {
  name: "batch_size"
  op: "Const"
  device: "/device:CPU:0"
  attr {
    key: "_output_shapes"
    value {
      list {
        shape {
        }
      }
    }
  }
  attr {
    key: "dtype"
    value {
      type: DT_INT64
    }
  }
  attr {
    key: "value"
    value {
      tensor {
        dtype: DT_INT64
        tensor_shape {
        }
        int64_val: 32
      }
    }
  }
}
node {
  name: "num_parallel_calls"
  op: "Const"
  device: "/device:CPU:0"
  attr {
    key: "_output_shapes"
    value {
      list {
        shape {
        }
      }
    }
  }
  attr {
    key: "dtype"
    value {
      type: DT_INT64
    }
  }
  attr {
    key: "value"
    value {
      tensor {
        dtype: DT_INT64
        tensor_shape {
        }
        int64_val: 128
      }
    }
  }
}
node {
  name: "drop_remainder"
  op: "Const"
  device: "/device:CPU:0"
  attr {
    key: "_output_shapes"
    value {
      list {
        shape {
        }
      }
    }
  }
  attr {
    key: "dtype"
    value {
      type: DT_BOOL
    }
  }
  attr {
    key: "value"
    value {
      tensor {
        dtype: DT_BOOL
        tensor_shape {
        }
        bool_val: true
      }
    }
  }
}
node {
  name: "IteratorV2"
  op: "IteratorV2"
  attr {
    key: "_output_shapes"
    value {
      list {
        shape {
        }
      }
    }
  }
  attr {
    key: "container"
    value {
      s: ""
    }
  }
  attr {
    key: "output_shapes"
    value {
      list {
        shape {
          dim {
            size: 32
          }
          dim {
            size: 128
          }
        }
        shape {
          dim {
            size: 32
          }
          dim {
            size: 128
          }
        }
        shape {
          dim {
            size: 32
          }
          dim {
            size: 20
          }
        }
        shape {
          dim {
            size: 32
          }
          dim {
            size: 20
          }
        }
        shape {
          dim {
            size: 32
          }
          dim {
            size: 20
          }
        }
        shape {
          dim {
            size: 32
          }
          dim {
            size: 1
          }
        }
        shape {
          dim {
            size: 32
          }
          dim {
            size: 128
          }
        }
      }
    }
  }
  attr {
    key: "output_types"
    value {
      list {
        type: DT_INT32
        type: DT_INT32
        type: DT_INT32
        type: DT_INT32
        type: DT_FLOAT
        type: DT_INT32
        type: DT_INT32
      }
    }
  }
  attr {
    key: "shared_name"
    value {
      s: ""
    }
  }
}
node {
  name: "TensorSliceDataset"
  op: "TensorSliceDataset"
  input: "Const"
  attr {
    key: "Toutput_types"
    value {
      list {
        type: DT_STRING
      }
    }
  }
  attr {
    key: "_class"
    value {
      list {
        s: "loc:@IteratorV2"
      }
    }
  }
  attr {
    key: "_output_shapes"
    value {
      list {
        shape {
        }
      }
    }
  }
  attr {
    key: "output_shapes"
    value {
      list {
        shape {
        }
      }
    }
  }
}
node {
  name: "RepeatDataset"
  op: "RepeatDataset"
  input: "TensorSliceDataset"
  input: "count"
  attr {
    key: "_class"
    value {
      list {
        s: "loc:@IteratorV2"
      }
    }
  }
  attr {
    key: "_output_shapes"
    value {
      list {
        shape {
        }
      }
    }
  }
  attr {
    key: "output_shapes"
    value {
      list {
        shape {
        }
      }
    }
  }
  attr {
    key: "output_types"
    value {
      list {
        type: DT_STRING
      }
    }
  }
}
node {
  name: "ShuffleDataset"
  op: "ShuffleDataset"
  input: "RepeatDataset"
  input: "buffer_size"
  input: "seed"
  input: "seed2"
  attr {
    key: "_class"
    value {
      list {
        s: "loc:@IteratorV2"
      }
    }
  }
  attr {
    key: "_output_shapes"
    value {
      list {
        shape {
        }
      }
    }
  }
  attr {
    key: "output_shapes"
    value {
      list {
        shape {
        }
      }
    }
  }
  attr {
    key: "output_types"
    value {
      list {
        type: DT_STRING
      }
    }
  }
  attr {
    key: "reshuffle_each_iteration"
    value {
      b: true
    }
  }
}
node {
  name: "ParallelInterleaveDataset"
  op: "ParallelInterleaveDataset"
  input: "ShuffleDataset"
  input: "cycle_length"
  input: "block_length"
  input: "sloppy"
  input: "buffer_output_elements"
  input: "prefetch_input_elements"
  attr {
    key: "Targuments"
    value {
      list {
      }
    }
  }
  attr {
    key: "_class"
    value {
      list {
        s: "loc:@IteratorV2"
      }
    }
  }
  attr {
    key: "_output_shapes"
    value {
      list {
        shape {
        }
      }
    }
  }
  attr {
    key: "f"
    value {
      func {
        name: "tf_data_structured_function_wrapper_rn3e6kArW78"
      }
    }
  }
  attr {
    key: "output_shapes"
    value {
      list {
        shape {
        }
      }
    }
  }
  attr {
    key: "output_types"
    value {
      list {
        type: DT_STRING
      }
    }
  }
}
node {
  name: "ShuffleDataset_1"
  op: "ShuffleDataset"
  input: "ParallelInterleaveDataset"
  input: "buffer_size_1"
  input: "seed_1"
  input: "seed2_1"
  attr {
    key: "_class"
    value {
      list {
        s: "loc:@IteratorV2"
      }
    }
  }
  attr {
    key: "_output_shapes"
    value {
      list {
        shape {
        }
      }
    }
  }
  attr {
    key: "output_shapes"
    value {
      list {
        shape {
        }
      }
    }
  }
  attr {
    key: "output_types"
    value {
      list {
        type: DT_STRING
      }
    }
  }
  attr {
    key: "reshuffle_each_iteration"
    value {
      b: true
    }
  }
}
node {
  name: "MapAndBatchDatasetV2"
  op: "MapAndBatchDatasetV2"
  input: "ShuffleDataset_1"
  input: "batch_size"
  input: "num_parallel_calls"
  input: "drop_remainder"
  attr {
    key: "Targuments"
    value {
      list {
      }
    }
  }
  attr {
    key: "_class"
    value {
      list {
        s: "loc:@IteratorV2"
      }
    }
  }
  attr {
    key: "_output_shapes"
    value {
      list {
        shape {
        }
      }
    }
  }
  attr {
    key: "f"
    value {
      func {
        name: "tf_data_structured_function_wrapper_9z4XDFOWUdQ"
      }
    }
  }
  attr {
    key: "output_shapes"
    value {
      list {
        shape {
          dim {
            size: 32
          }
          dim {
            size: 128
          }
        }
        shape {
          dim {
            size: 32
          }
          dim {
            size: 128
          }
        }
        shape {
          dim {
            size: 32
          }
          dim {
            size: 20
          }
        }
        shape {
          dim {
            size: 32
          }
          dim {
            size: 20
          }
        }
        shape {
          dim {
            size: 32
          }
          dim {
            size: 20
          }
        }
        shape {
          dim {
            size: 32
          }
          dim {
            size: 1
          }
        }
        shape {
          dim {
            size: 32
          }
          dim {
            size: 128
          }
        }
      }
    }
  }
  attr {
    key: "output_types"
    value {
      list {
        type: DT_INT32
        type: DT_INT32
        type: DT_INT32
        type: DT_INT32
        type: DT_FLOAT
        type: DT_INT32
        type: DT_INT32
      }
    }
  }
}
node {
  name: "MakeIterator"
  op: "MakeIterator"
  input: "MapAndBatchDatasetV2"
  input: "IteratorV2"
  attr {
    key: "_class"
    value {
      list {
        s: "loc:@IteratorV2"
      }
    }
  }
}
node {
  name: "IteratorToStringHandle"
  op: "IteratorToStringHandle"
  input: "IteratorV2"
  attr {
    key: "_output_shapes"
    value {
      list {
        shape {
        }
      }
    }
  }
}
node {
  name: "IteratorGetNext"
  op: "IteratorGetNext"
  input: "IteratorV2"
  attr {
    key: "_output_shapes"
    value {
      list {
        shape {
          dim {
            size: 32
          }
          dim {
            size: 128
          }
        }
        shape {
          dim {
            size: 32
          }
          dim {
            size: 128
          }
        }
        shape {
          dim {
            size: 32
          }
          dim {
            size: 20
          }
        }
        shape {
          dim {
            size: 32
          }
          dim {
            size: 20
          }
        }
        shape {
          dim {
            size: 32
          }
          dim {
            size: 20
          }
        }
        shape {
          dim {
            size: 32
          }
          dim {
            size: 1
          }
        }
        shape {
          dim {
            size: 32
          }
          dim {
            size: 128
          }
        }
      }
    }
  }
  attr {
    key: "output_shapes"
    value {
      list {
        shape {
          dim {
            size: 32
          }
          dim {
            size: 128
          }
        }
        shape {
          dim {
            size: 32
          }
          dim {
            size: 128
          }
        }
        shape {
          dim {
            size: 32
          }
          dim {
            size: 20
          }
        }
        shape {
          dim {
            size: 32
          }
          dim {
            size: 20
          }
        }
        shape {
          dim {
            size: 32
          }
          dim {
            size: 20
          }
        }
        shape {
          dim {
            size: 32
          }
          dim {
            size: 1
          }
        }
        shape {
          dim {
            size: 32
          }
          dim {
            size: 128
          }
        }
      }
    }
  }
  attr {
    key: "output_types"
    value {
      list {
        type: DT_INT32
        type: DT_INT32
        type: DT_INT32
        type: DT_INT32
        type: DT_FLOAT
        type: DT_INT32
        type: DT_INT32
      }
    }
  }
}
node {
  name: "bert/embeddings/ExpandDims/dim"
  op: "Const"
  attr {
    key: "_output_shapes"
    value {
      list {
        shape {
          dim {
            size: 1
          }
        }
      }
    }
  }
  attr {
    key: "dtype"
    value {
      type: DT_INT32
    }
  }
  attr {
    key: "value"
    value {
      tensor {
        dtype: DT_INT32
        tensor_shape {
          dim {
            size: 1
          }
        }
        int_val: -1
      }
    }
  }
}
node {
  name: "bert/embeddings/ExpandDims"
  op: "ExpandDims"
  input: "IteratorGetNext"
  input: "bert/embeddings/ExpandDims/dim"
  attr {
    key: "T"
    value {
      type: DT_INT32
    }
  }
  attr {
    key: "Tdim"
    value {
      type: DT_INT32
    }
  }
  attr {
    key: "_output_shapes"
    value {
      list {
        shape {
          dim {
            size: 32
          }
          dim {
            size: 128
          }
          dim {
            size: 1
          }
        }
      }
    }
  }
}
node {
  name: "bert/embeddings/word_embeddings/Initializer/truncated_normal/shape"
  op: "Const"
  attr {
    key: "_class"
    value {
      list {
        s: "loc:@bert/embeddings/word_embeddings"
      }
    }
  }
  attr {
    key: "_output_shapes"
    value {
      list {
        shape {
          dim {
            size: 2
          }
        }
      }
    }
  }
  attr {
    key: "dtype"
    value {
      type: DT_INT32
    }
  }
  attr {
    key: "value"
    value {
      tensor {
        dtype: DT_INT32
        tensor_shape {
          dim {
            size: 2
          }
        }
        tensor_content: ":w\000\000\000\001\000\000"
      }
    }
  }
}
node {
  name: "bert/embeddings/word_embeddings/Initializer/truncated_normal/mean"
  op: "Const"
  attr {
    key: "_class"
    value {
      list {
        s: "loc:@bert/embeddings/word_embeddings"
      }
    }
  }
  attr {
    key: "_output_shapes"
    value {
      list {
        shape {
        }
      }
    }
  }
  attr {
    key: "dtype"
    value {
      type: DT_FLOAT
    }
  }
  attr {
    key: "value"
    value {
      tensor {
        dtype: DT_FLOAT
        tensor_shape {
        }
        float_val: 0.0
      }
    }
  }
}
node {
  name: "bert/embeddings/word_embeddings/Initializer/truncated_normal/stddev"
  op: "Const"
  attr {
    key: "_class"
    value {
      list {
        s: "loc:@bert/embeddings/word_embeddings"
      }
    }
  }
  attr {
    key: "_output_shapes"
    value {
      list {
        shape {
        }
      }
    }
  }
  attr {
    key: "dtype"
    value {
      type: DT_FLOAT
    }
  }
  attr {
    key: "value"
    value {
      tensor {
        dtype: DT_FLOAT
        tensor_shape {
        }
        float_val: 0.02
      }
    }
  }
}
node {
  name: "bert/embeddings/word_embeddings/Initializer/truncated_normal/TruncatedNormal"
  op: "TruncatedNormal"
  input: "bert/embeddings/word_embeddings/Initializer/truncated_normal/shape"
  attr {
    key: "T"
    value {
      type: DT_INT32
    }
  }
  attr {
    key: "_class"
    value {
      list {
        s: "loc:@bert/embeddings/word_embeddings"
      }
    }
  }
  attr {
    key: "_output_shapes"
    value {
      list {
        shape {
          dim {
            size: 30522
          }
          dim {
            size: 256
          }
        }
      }
    }
  }
  attr {
    key: "dtype"
    value {
      type: DT_FLOAT
    }
  }
  attr {
    key: "seed"
    value {
      i: 0
    }
  }
  attr {
    key: "seed2"
    value {
      i: 0
    }
  }
}
node {
  name: "bert/embeddings/word_embeddings/Initializer/truncated_normal/mul"
  op: "Mul"
  input: "bert/embeddings/word_embeddings/Initializer/truncated_normal/TruncatedNormal"
  input: "bert/embeddings/word_embeddings/Initializer/truncated_normal/stddev"
  attr {
    key: "T"
    value {
      type: DT_FLOAT
    }
  }
  attr {
    key: "_class"
    value {
      list {
        s: "loc:@bert/embeddings/word_embeddings"
      }
    }
  }
  attr {
    key: "_output_shapes"
    value {
      list {
        shape {
          dim {
            size: 30522
          }
          dim {
            size: 256
          }
        }
      }
    }
  }
}
node {
  name: "bert/embeddings/word_embeddings/Initializer/truncated_normal"
  op: "Add"
  input: "bert/embeddings/word_embeddings/Initializer/truncated_normal/mul"
  input: "bert/embeddings/word_embeddings/Initializer/truncated_normal/mean"
  attr {
    key: "T"
    value {
      type: DT_FLOAT
    }
  }
  attr {
    key: "_class"
    value {
      list {
        s: "loc:@bert/embeddings/word_embeddings"
      }
    }
  }
  attr {
    key: "_output_shapes"
    value {
      list {
        shape {
          dim {
            size: 30522
          }
          dim {
            size: 256
          }
        }
      }
    }
  }
}
node {
  name: "bert/embeddings/word_embeddings"
  op: "VariableV2"
  attr {
    key: "_class"
    value {
      list {
        s: "loc:@bert/embeddings/word_embeddings"
      }
    }
  }
  attr {
    key: "_output_shapes"
    value {
      list {
        shape {
          dim {
            size: 30522
          }
          dim {
            size: 256
          }
        }
      }
    }
  }
  attr {
    key: "container"
    value {
      s: ""
    }
  }
  attr {
    key: "dtype"
    value {
      type: DT_FLOAT
    }
  }
  attr {
    key: "shape"
    value {
      shape {
        dim {
          size: 30522
        }
        dim {
          size: 256
        }
      }
    }
  }
  attr {
    key: "shared_name"
    value {
      s: ""
    }
  }
}
node {
  name: "bert/embeddings/word_embeddings/Assign"
  op: "Assign"
  input: "bert/embeddings/word_embeddings"
  input: "bert/embeddings/word_embeddings/Initializer/truncated_normal"
  attr {
    key: "T"
    value {
      type: DT_FLOAT
    }
  }
  attr {
    key: "_class"
    value {
      list {
        s: "loc:@bert/embeddings/word_embeddings"
      }
    }
  }
  attr {
    key: "_output_shapes"
    value {
      list {
        shape {
          dim {
            size: 30522
          }
          dim {
            size: 256
          }
        }
      }
    }
  }
  attr {
    key: "use_locking"
    value {
      b: true
    }
  }
  attr {
    key: "validate_shape"
    value {
      b: true
    }
  }
}
node {
  name: "bert/embeddings/word_embeddings/read"
  op: "Identity"
  input: "bert/embeddings/word_embeddings"
  attr {
    key: "T"
    value {
      type: DT_FLOAT
    }
  }
  attr {
    key: "_class"
    value {
      list {
        s: "loc:@bert/embeddings/word_embeddings"
      }
    }
  }
  attr {
    key: "_output_shapes"
    value {
      list {
        shape {
          dim {
            size: 30522
          }
          dim {
            size: 256
          }
        }
      }
    }
  }
}
node {
  name: "bert/embeddings/Reshape/shape"
  op: "Const"
  attr {
    key: "_output_shapes"
    value {
      list {
        shape {
          dim {
            size: 1
          }
        }
      }
    }
  }
  attr {
    key: "dtype"
    value {
      type: DT_INT32
    }
  }
  attr {
    key: "value"
    value {
      tensor {
        dtype: DT_INT32
        tensor_shape {
          dim {
            size: 1
          }
        }
        int_val: -1
      }
    }
  }
}
node {
  name: "bert/embeddings/Reshape"
  op: "Reshape"
  input: "bert/embeddings/ExpandDims"
  input: "bert/embeddings/Reshape/shape"
  attr {
    key: "T"
    value {
      type: DT_INT32
    }
  }
  attr {
    key: "Tshape"
    value {
      type: DT_INT32
    }
  }
  attr {
    key: "_output_shapes"
    value {
      list {
        shape {
          dim {
            size: 4096
          }
        }
      }
    }
  }
}
node {
  name: "bert/embeddings/GatherV2/axis"
  op: "Const"
  attr {
    key: "_output_shapes"
    value {
      list {
        shape {
        }
      }
    }
  }
  attr {
    key: "dtype"
    value {
      type: DT_INT32
    }
  }
  attr {
    key: "value"
    value {
      tensor {
        dtype: DT_INT32
        tensor_shape {
        }
        int_val: 0
      }
    }
  }
}
node {
  name: "bert/embeddings/GatherV2"
  op: "GatherV2"
  input: "bert/embeddings/word_embeddings/read"
  input: "bert/embeddings/Reshape"
  input: "bert/embeddings/GatherV2/axis"
  attr {
    key: "Taxis"
    value {
      type: DT_INT32
    }
  }
  attr {
    key: "Tindices"
    value {
      type: DT_INT32
    }
  }
  attr {
    key: "Tparams"
    value {
      type: DT_FLOAT
    }
  }
  attr {
    key: "_output_shapes"
    value {
      list {
        shape {
          dim {
            size: 4096
          }
          dim {
            size: 256
          }
        }
      }
    }
  }
}
node {
  name: "bert/embeddings/Reshape_1/shape"
  op: "Const"
  attr {
    key: "_output_shapes"
    value {
      list {
        shape {
          dim {
            size: 3
          }
        }
      }
    }
  }
  attr {
    key: "dtype"
    value {
      type: DT_INT32
    }
  }
  attr {
    key: "value"
    value {
      tensor {
        dtype: DT_INT32
        tensor_shape {
          dim {
            size: 3
          }
        }
        tensor_content: " \000\000\000\200\000\000\000\000\001\000\000"
      }
    }
  }
}
node {
  name: "bert/embeddings/Reshape_1"
  op: "Reshape"
  input: "bert/embeddings/GatherV2"
  input: "bert/embeddings/Reshape_1/shape"
  attr {
    key: "T"
    value {
      type: DT_FLOAT
    }
  }
  attr {
    key: "Tshape"
    value {
      type: DT_INT32
    }
  }
  attr {
    key: "_output_shapes"
    value {
      list {
        shape {
          dim {
            size: 32
          }
          dim {
            size: 128
          }
          dim {
            size: 256
          }
        }
      }
    }
  }
}
node {
  name: "bert/embeddings/token_type_embeddings/Initializer/truncated_normal/shape"
  op: "Const"
  attr {
    key: "_class"
    value {
      list {
        s: "loc:@bert/embeddings/token_type_embeddings"
      }
    }
  }
  attr {
    key: "_output_shapes"
    value {
      list {
        shape {
          dim {
            size: 2
          }
        }
      }
    }
  }
  attr {
    key: "dtype"
    value {
      type: DT_INT32
    }
  }
  attr {
    key: "value"
    value {
      tensor {
        dtype: DT_INT32
        tensor_shape {
          dim {
            size: 2
          }
        }
        tensor_content: "\002\000\000\000\000\001\000\000"
      }
    }
  }
}
node {
  name: "bert/embeddings/token_type_embeddings/Initializer/truncated_normal/mean"
  op: "Const"
  attr {
    key: "_class"
    value {
      list {
        s: "loc:@bert/embeddings/token_type_embeddings"
      }
    }
  }
  attr {
    key: "_output_shapes"
    value {
      list {
        shape {
        }
      }
    }
  }
  attr {
    key: "dtype"
    value {
      type: DT_FLOAT
    }
  }
  attr {
    key: "value"
    value {
      tensor {
        dtype: DT_FLOAT
        tensor_shape {
        }
        float_val: 0.0
      }
    }
  }
}
node {
  name: "bert/embeddings/token_type_embeddings/Initializer/truncated_normal/stddev"
  op: "Const"
  attr {
    key: "_class"
    value {
      list {
        s: "loc:@bert/embeddings/token_type_embeddings"
      }
    }
  }
  attr {
    key: "_output_shapes"
    value {
      list {
        shape {
        }
      }
    }
  }
  attr {
    key: "dtype"
    value {
      type: DT_FLOAT
    }
  }
  attr {
    key: "value"
    value {
      tensor {
        dtype: DT_FLOAT
        tensor_shape {
        }
        float_val: 0.02
      }
    }
  }
}
node {
  name: "bert/embeddings/token_type_embeddings/Initializer/truncated_normal/TruncatedNormal"
  op: "TruncatedNormal"
  input: "bert/embeddings/token_type_embeddings/Initializer/truncated_normal/shape"
  attr {
    key: "T"
    value {
      type: DT_INT32
    }
  }
  attr {
    key: "_class"
    value {
      list {
        s: "loc:@bert/embeddings/token_type_embeddings"
      }
    }
  }
  attr {
    key: "_output_shapes"
    value {
      list {
        shape {
          dim {
            size: 2
          }
          dim {
            size: 256
          }
        }
      }
    }
  }
  attr {
    key: "dtype"
    value {
      type: DT_FLOAT
    }
  }
  attr {
    key: "seed"
    value {
      i: 0
    }
  }
  attr {
    key: "seed2"
    value {
      i: 0
    }
  }
}
node {
  name: "bert/embeddings/token_type_embeddings/Initializer/truncated_normal/mul"
  op: "Mul"
  input: "bert/embeddings/token_type_embeddings/Initializer/truncated_normal/TruncatedNormal"
  input: "bert/embeddings/token_type_embeddings/Initializer/truncated_normal/stddev"
  attr {
    key: "T"
    value {
      type: DT_FLOAT
    }
  }
  attr {
    key: "_class"
    value {
      list {
        s: "loc:@bert/embeddings/token_type_embeddings"
      }
    }
  }
  attr {
    key: "_output_shapes"
    value {
      list {
        shape {
          dim {
            size: 2
          }
          dim {
            size: 256
          }
        }
      }
    }
  }
}
node {
  name: "bert/embeddings/token_type_embeddings/Initializer/truncated_normal"
  op: "Add"
  input: "bert/embeddings/token_type_embeddings/Initializer/truncated_normal/mul"
  input: "bert/embeddings/token_type_embeddings/Initializer/truncated_normal/mean"
  attr {
    key: "T"
    value {
      type: DT_FLOAT
    }
  }
  attr {
    key: "_class"
    value {
      list {
        s: "loc:@bert/embeddings/token_type_embeddings"
      }
    }
  }
  attr {
    key: "_output_shapes"
    value {
      list {
        shape {
          dim {
            size: 2
          }
          dim {
            size: 256
          }
        }
      }
    }
  }
}
node {
  name: "bert/embeddings/token_type_embeddings"
  op: "VariableV2"
  attr {
    key: "_class"
    value {
      list {
        s: "loc:@bert/embeddings/token_type_embeddings"
      }
    }
  }
  attr {
    key: "_output_shapes"
    value {
      list {
        shape {
          dim {
            size: 2
          }
          dim {
            size: 256
          }
        }
      }
    }
  }
  attr {
    key: "container"
    value {
      s: ""
    }
  }
  attr {
    key: "dtype"
    value {
      type: DT_FLOAT
    }
  }
  attr {
    key: "shape"
    value {
      shape {
        dim {
          size: 2
        }
        dim {
          size: 256
        }
      }
    }
  }
  attr {
    key: "shared_name"
    value {
      s: ""
    }
  }
}
node {
  name: "bert/embeddings/token_type_embeddings/Assign"
  op: "Assign"
  input: "bert/embeddings/token_type_embeddings"
  input: "bert/embeddings/token_type_embeddings/Initializer/truncated_normal"
  attr {
    key: "T"
    value {
      type: DT_FLOAT
    }
  }
  attr {
    key: "_class"
    value {
      list {
        s: "loc:@bert/embeddings/token_type_embeddings"
      }
    }
  }
  attr {
    key: "_output_shapes"
    value {
      list {
        shape {
          dim {
            size: 2
          }
          dim {
            size: 256
          }
        }
      }
    }
  }
  attr {
    key: "use_locking"
    value {
      b: true
    }
  }
  attr {
    key: "validate_shape"
    value {
      b: true
    }
  }
}
node {
  name: "bert/embeddings/token_type_embeddings/read"
  op: "Identity"
  input: "bert/embeddings/token_type_embeddings"
  attr {
    key: "T"
    value {
      type: DT_FLOAT
    }
  }
  attr {
    key: "_class"
    value {
      list {
        s: "loc:@bert/embeddings/token_type_embeddings"
      }
    }
  }
  attr {
    key: "_output_shapes"
    value {
      list {
        shape {
          dim {
            size: 2
          }
          dim {
            size: 256
          }
        }
      }
    }
  }
}
node {
  name: "bert/embeddings/Reshape_2/shape"
  op: "Const"
  attr {
    key: "_output_shapes"
    value {
      list {
        shape {
          dim {
            size: 1
          }
        }
      }
    }
  }
  attr {
    key: "dtype"
    value {
      type: DT_INT32
    }
  }
  attr {
    key: "value"
    value {
      tensor {
        dtype: DT_INT32
        tensor_shape {
          dim {
            size: 1
          }
        }
        int_val: -1
      }
    }
  }
}
node {
  name: "bert/embeddings/Reshape_2"
  op: "Reshape"
  input: "IteratorGetNext:6"
  input: "bert/embeddings/Reshape_2/shape"
  attr {
    key: "T"
    value {
      type: DT_INT32
    }
  }
  attr {
    key: "Tshape"
    value {
      type: DT_INT32
    }
  }
  attr {
    key: "_output_shapes"
    value {
      list {
        shape {
          dim {
            size: 4096
          }
        }
      }
    }
  }
}
node {
  name: "bert/embeddings/one_hot/on_value"
  op: "Const"
  attr {
    key: "_output_shapes"
    value {
      list {
        shape {
        }
      }
    }
  }
  attr {
    key: "dtype"
    value {
      type: DT_FLOAT
    }
  }
  attr {
    key: "value"
    value {
      tensor {
        dtype: DT_FLOAT
        tensor_shape {
        }
        float_val: 1.0
      }
    }
  }
}
node {
  name: "bert/embeddings/one_hot/off_value"
  op: "Const"
  attr {
    key: "_output_shapes"
    value {
      list {
        shape {
        }
      }
    }
  }
  attr {
    key: "dtype"
    value {
      type: DT_FLOAT
    }
  }
  attr {
    key: "value"
    value {
      tensor {
        dtype: DT_FLOAT
        tensor_shape {
        }
        float_val: 0.0
      }
    }
  }
}
node {
  name: "bert/embeddings/one_hot/depth"
  op: "Const"
  attr {
    key: "_output_shapes"
    value {
      list {
        shape {
        }
      }
    }
  }
  attr {
    key: "dtype"
    value {
      type: DT_INT32
    }
  }
  attr {
    key: "value"
    value {
      tensor {
        dtype: DT_INT32
        tensor_shape {
        }
        int_val: 2
      }
    }
  }
}
node {
  name: "bert/embeddings/one_hot"
  op: "OneHot"
  input: "bert/embeddings/Reshape_2"
  input: "bert/embeddings/one_hot/depth"
  input: "bert/embeddings/one_hot/on_value"
  input: "bert/embeddings/one_hot/off_value"
  attr {
    key: "T"
    value {
      type: DT_FLOAT
    }
  }
  attr {
    key: "TI"
    value {
      type: DT_INT32
    }
  }
  attr {
    key: "_output_shapes"
    value {
      list {
        shape {
          dim {
            size: 4096
          }
          dim {
            size: 2
          }
        }
      }
    }
  }
  attr {
    key: "axis"
    value {
      i: -1
    }
  }
}
node {
  name: "bert/embeddings/MatMul"
  op: "MatMul"
  input: "bert/embeddings/one_hot"
  input: "bert/embeddings/token_type_embeddings/read"
  attr {
    key: "T"
    value {
      type: DT_FLOAT
    }
  }
  attr {
    key: "_output_shapes"
    value {
      list {
        shape {
          dim {
            size: 4096
          }
          dim {
            size: 256
          }
        }
      }
    }
  }
  attr {
    key: "transpose_a"
    value {
      b: false
    }
  }
  attr {
    key: "transpose_b"
    value {
      b: false
    }
  }
}
node {
  name: "bert/embeddings/Reshape_3/shape"
  op: "Const"
  attr {
    key: "_output_shapes"
    value {
      list {
        shape {
          dim {
            size: 3
          }
        }
      }
    }
  }
  attr {
    key: "dtype"
    value {
      type: DT_INT32
    }
  }
  attr {
    key: "value"
    value {
      tensor {
        dtype: DT_INT32
        tensor_shape {
          dim {
            size: 3
          }
        }
        tensor_content: " \000\000\000\200\000\000\000\000\001\000\000"
      }
    }
  }
}
node {
  name: "bert/embeddings/Reshape_3"
  op: "Reshape"
  input: "bert/embeddings/MatMul"
  input: "bert/embeddings/Reshape_3/shape"
  attr {
    key: "T"
    value {
      type: DT_FLOAT
    }
  }
  attr {
    key: "Tshape"
    value {
      type: DT_INT32
    }
  }
  attr {
    key: "_output_shapes"
    value {
      list {
        shape {
          dim {
            size: 32
          }
          dim {
            size: 128
          }
          dim {
            size: 256
          }
        }
      }
    }
  }
}
node {
  name: "bert/embeddings/add"
  op: "Add"
  input: "bert/embeddings/Reshape_1"
  input: "bert/embeddings/Reshape_3"
  attr {
    key: "T"
    value {
      type: DT_FLOAT
    }
  }
  attr {
    key: "_output_shapes"
    value {
      list {
        shape {
          dim {
            size: 32
          }
          dim {
            size: 128
          }
          dim {
            size: 256
          }
        }
      }
    }
  }
}
node {
  name: "bert/embeddings/assert_less_equal/x"
  op: "Const"
  attr {
    key: "_output_shapes"
    value {
      list {
        shape {
        }
      }
    }
  }
  attr {
    key: "dtype"
    value {
      type: DT_INT32
    }
  }
  attr {
    key: "value"
    value {
      tensor {
        dtype: DT_INT32
        tensor_shape {
        }
        int_val: 128
      }
    }
  }
}
node {
  name: "bert/embeddings/assert_less_equal/y"
  op: "Const"
  attr {
    key: "_output_shapes"
    value {
      list {
        shape {
        }
      }
    }
  }
  attr {
    key: "dtype"
    value {
      type: DT_INT32
    }
  }
  attr {
    key: "value"
    value {
      tensor {
        dtype: DT_INT32
        tensor_shape {
        }
        int_val: 512
      }
    }
  }
}
node {
  name: "bert/embeddings/assert_less_equal/LessEqual"
  op: "LessEqual"
  input: "bert/embeddings/assert_less_equal/x"
  input: "bert/embeddings/assert_less_equal/y"
  attr {
    key: "T"
    value {
      type: DT_INT32
    }
  }
  attr {
    key: "_output_shapes"
    value {
      list {
        shape {
        }
      }
    }
  }
}
node {
  name: "bert/embeddings/assert_less_equal/Const"
  op: "Const"
  attr {
    key: "_output_shapes"
    value {
      list {
        shape {
          dim {
          }
        }
      }
    }
  }
  attr {
    key: "dtype"
    value {
      type: DT_INT32
    }
  }
  attr {
    key: "value"
    value {
      tensor {
        dtype: DT_INT32
        tensor_shape {
          dim {
          }
        }
      }
    }
  }
}
node {
  name: "bert/embeddings/assert_less_equal/All"
  op: "All"
  input: "bert/embeddings/assert_less_equal/LessEqual"
  input: "bert/embeddings/assert_less_equal/Const"
  attr {
    key: "Tidx"
    value {
      type: DT_INT32
    }
  }
  attr {
    key: "_output_shapes"
    value {
      list {
        shape {
        }
      }
    }
  }
  attr {
    key: "keep_dims"
    value {
      b: false
    }
  }
}
node {
  name: "bert/embeddings/assert_less_equal/Assert/Const"
  op: "Const"
  attr {
    key: "_output_shapes"
    value {
      list {
        shape {
        }
      }
    }
  }
  attr {
    key: "dtype"
    value {
      type: DT_STRING
    }
  }
  attr {
    key: "value"
    value {
      tensor {
        dtype: DT_STRING
        tensor_shape {
        }
        string_val: ""
      }
    }
  }
}
node {
  name: "bert/embeddings/assert_less_equal/Assert/Const_1"
  op: "Const"
  attr {
    key: "_output_shapes"
    value {
      list {
        shape {
        }
      }
    }
  }
  attr {
    key: "dtype"
    value {
      type: DT_STRING
    }
  }
  attr {
    key: "value"
    value {
      tensor {
        dtype: DT_STRING
        tensor_shape {
        }
        string_val: "Condition x <= y did not hold element-wise:x (bert/embeddings/assert_less_equal/x:0) = "
      }
    }
  }
}
node {
  name: "bert/embeddings/assert_less_equal/Assert/Const_2"
  op: "Const"
  attr {
    key: "_output_shapes"
    value {
      list {
        shape {
        }
      }
    }
  }
  attr {
    key: "dtype"
    value {
      type: DT_STRING
    }
  }
  attr {
    key: "value"
    value {
      tensor {
        dtype: DT_STRING
        tensor_shape {
        }
        string_val: "y (bert/embeddings/assert_less_equal/y:0) = "
      }
    }
  }
}
node {
  name: "bert/embeddings/assert_less_equal/Assert/Assert/data_0"
  op: "Const"
  attr {
    key: "_output_shapes"
    value {
      list {
        shape {
        }
      }
    }
  }
  attr {
    key: "dtype"
    value {
      type: DT_STRING
    }
  }
  attr {
    key: "value"
    value {
      tensor {
        dtype: DT_STRING
        tensor_shape {
        }
        string_val: ""
      }
    }
  }
}
node {
  name: "bert/embeddings/assert_less_equal/Assert/Assert/data_1"
  op: "Const"
  attr {
    key: "_output_shapes"
    value {
      list {
        shape {
        }
      }
    }
  }
  attr {
    key: "dtype"
    value {
      type: DT_STRING
    }
  }
  attr {
    key: "value"
    value {
      tensor {
        dtype: DT_STRING
        tensor_shape {
        }
        string_val: "Condition x <= y did not hold element-wise:x (bert/embeddings/assert_less_equal/x:0) = "
      }
    }
  }
}
node {
  name: "bert/embeddings/assert_less_equal/Assert/Assert/data_3"
  op: "Const"
  attr {
    key: "_output_shapes"
    value {
      list {
        shape {
        }
      }
    }
  }
  attr {
    key: "dtype"
    value {
      type: DT_STRING
    }
  }
  attr {
    key: "value"
    value {
      tensor {
        dtype: DT_STRING
        tensor_shape {
        }
        string_val: "y (bert/embeddings/assert_less_equal/y:0) = "
      }
    }
  }
}
node {
  name: "bert/embeddings/assert_less_equal/Assert/Assert"
  op: "Assert"
  input: "bert/embeddings/assert_less_equal/All"
  input: "bert/embeddings/assert_less_equal/Assert/Assert/data_0"
  input: "bert/embeddings/assert_less_equal/Assert/Assert/data_1"
  input: "bert/embeddings/assert_less_equal/x"
  input: "bert/embeddings/assert_less_equal/Assert/Assert/data_3"
  input: "bert/embeddings/assert_less_equal/y"
  attr {
    key: "T"
    value {
      list {
        type: DT_STRING
        type: DT_STRING
        type: DT_INT32
        type: DT_STRING
        type: DT_INT32
      }
    }
  }
  attr {
    key: "summarize"
    value {
      i: 3
    }
  }
}
node {
  name: "bert/embeddings/position_embeddings/Initializer/truncated_normal/shape"
  op: "Const"
  attr {
    key: "_class"
    value {
      list {
        s: "loc:@bert/embeddings/position_embeddings"
      }
    }
  }
  attr {
    key: "_output_shapes"
    value {
      list {
        shape {
          dim {
            size: 2
          }
        }
      }
    }
  }
  attr {
    key: "dtype"
    value {
      type: DT_INT32
    }
  }
  attr {
    key: "value"
    value {
      tensor {
        dtype: DT_INT32
        tensor_shape {
          dim {
            size: 2
          }
        }
        tensor_content: "\000\002\000\000\000\001\000\000"
      }
    }
  }
}
node {
  name: "bert/embeddings/position_embeddings/Initializer/truncated_normal/mean"
  op: "Const"
  attr {
    key: "_class"
    value {
      list {
        s: "loc:@bert/embeddings/position_embeddings"
      }
    }
  }
  attr {
    key: "_output_shapes"
    value {
      list {
        shape {
        }
      }
    }
  }
  attr {
    key: "dtype"
    value {
      type: DT_FLOAT
    }
  }
  attr {
    key: "value"
    value {
      tensor {
        dtype: DT_FLOAT
        tensor_shape {
        }
        float_val: 0.0
      }
    }
  }
}
node {
  name: "bert/embeddings/position_embeddings/Initializer/truncated_normal/stddev"
  op: "Const"
  attr {
    key: "_class"
    value {
      list {
        s: "loc:@bert/embeddings/position_embeddings"
      }
    }
  }
  attr {
    key: "_output_shapes"
    value {
      list {
        shape {
        }
      }
    }
  }
  attr {
    key: "dtype"
    value {
      type: DT_FLOAT
    }
  }
  attr {
    key: "value"
    value {
      tensor {
        dtype: DT_FLOAT
        tensor_shape {
        }
        float_val: 0.02
      }
    }
  }
}
node {
  name: "bert/embeddings/position_embeddings/Initializer/truncated_normal/TruncatedNormal"
  op: "TruncatedNormal"
  input: "bert/embeddings/position_embeddings/Initializer/truncated_normal/shape"
  attr {
    key: "T"
    value {
      type: DT_INT32
    }
  }
  attr {
    key: "_class"
    value {
      list {
        s: "loc:@bert/embeddings/position_embeddings"
      }
    }
  }
  attr {
    key: "_output_shapes"
    value {
      list {
        shape {
          dim {
            size: 512
          }
          dim {
            size: 256
          }
        }
      }
    }
  }
  attr {
    key: "dtype"
    value {
      type: DT_FLOAT
    }
  }
  attr {
    key: "seed"
    value {
      i: 0
    }
  }
  attr {
    key: "seed2"
    value {
      i: 0
    }
  }
}
node {
  name: "bert/embeddings/position_embeddings/Initializer/truncated_normal/mul"
  op: "Mul"
  input: "bert/embeddings/position_embeddings/Initializer/truncated_normal/TruncatedNormal"
  input: "bert/embeddings/position_embeddings/Initializer/truncated_normal/stddev"
  attr {
    key: "T"
    value {
      type: DT_FLOAT
    }
  }
  attr {
    key: "_class"
    value {
      list {
        s: "loc:@bert/embeddings/position_embeddings"
      }
    }
  }
  attr {
    key: "_output_shapes"
    value {
      list {
        shape {
          dim {
            size: 512
          }
          dim {
            size: 256
          }
        }
      }
    }
  }
}
node {
  name: "bert/embeddings/position_embeddings/Initializer/truncated_normal"
  op: "Add"
  input: "bert/embeddings/position_embeddings/Initializer/truncated_normal/mul"
  input: "bert/embeddings/position_embeddings/Initializer/truncated_normal/mean"
  attr {
    key: "T"
    value {
      type: DT_FLOAT
    }
  }
  attr {
    key: "_class"
    value {
      list {
        s: "loc:@bert/embeddings/position_embeddings"
      }
    }
  }
  attr {
    key: "_output_shapes"
    value {
      list {
        shape {
          dim {
            size: 512
          }
          dim {
            size: 256
          }
        }
      }
    }
  }
}
node {
  name: "bert/embeddings/position_embeddings"
  op: "VariableV2"
  attr {
    key: "_class"
    value {
      list {
        s: "loc:@bert/embeddings/position_embeddings"
      }
    }
  }
  attr {
    key: "_output_shapes"
    value {
      list {
        shape {
          dim {
            size: 512
          }
          dim {
            size: 256
          }
        }
      }
    }
  }
  attr {
    key: "container"
    value {
      s: ""
    }
  }
  attr {
    key: "dtype"
    value {
      type: DT_FLOAT
    }
  }
  attr {
    key: "shape"
    value {
      shape {
        dim {
          size: 512
        }
        dim {
          size: 256
        }
      }
    }
  }
  attr {
    key: "shared_name"
    value {
      s: ""
    }
  }
}
node {
  name: "bert/embeddings/position_embeddings/Assign"
  op: "Assign"
  input: "bert/embeddings/position_embeddings"
  input: "bert/embeddings/position_embeddings/Initializer/truncated_normal"
  attr {
    key: "T"
    value {
      type: DT_FLOAT
    }
  }
  attr {
    key: "_class"
    value {
      list {
        s: "loc:@bert/embeddings/position_embeddings"
      }
    }
  }
  attr {
    key: "_output_shapes"
    value {
      list {
        shape {
          dim {
            size: 512
          }
          dim {
            size: 256
          }
        }
      }
    }
  }
  attr {
    key: "use_locking"
    value {
      b: true
    }
  }
  attr {
    key: "validate_shape"
    value {
      b: true
    }
  }
}
node {
  name: "bert/embeddings/position_embeddings/read"
  op: "Identity"
  input: "bert/embeddings/position_embeddings"
  attr {
    key: "T"
    value {
      type: DT_FLOAT
    }
  }
  attr {
    key: "_class"
    value {
      list {
        s: "loc:@bert/embeddings/position_embeddings"
      }
    }
  }
  attr {
    key: "_output_shapes"
    value {
      list {
        shape {
          dim {
            size: 512
          }
          dim {
            size: 256
          }
        }
      }
    }
  }
}
node {
  name: "bert/embeddings/Slice/begin"
  op: "Const"
  input: "^bert/embeddings/assert_less_equal/Assert/Assert"
  attr {
    key: "_output_shapes"
    value {
      list {
        shape {
          dim {
            size: 2
          }
        }
      }
    }
  }
  attr {
    key: "dtype"
    value {
      type: DT_INT32
    }
  }
  attr {
    key: "value"
    value {
      tensor {
        dtype: DT_INT32
        tensor_shape {
          dim {
            size: 2
          }
        }
        tensor_content: "\000\000\000\000\000\000\000\000"
      }
    }
  }
}
node {
  name: "bert/embeddings/Slice/size"
  op: "Const"
  input: "^bert/embeddings/assert_less_equal/Assert/Assert"
  attr {
    key: "_output_shapes"
    value {
      list {
        shape {
          dim {
            size: 2
          }
        }
      }
    }
  }
  attr {
    key: "dtype"
    value {
      type: DT_INT32
    }
  }
  attr {
    key: "value"
    value {
      tensor {
        dtype: DT_INT32
        tensor_shape {
          dim {
            size: 2
          }
        }
        tensor_content: "\200\000\000\000\377\377\377\377"
      }
    }
  }
}
node {
  name: "bert/embeddings/Slice"
  op: "Slice"
  input: "bert/embeddings/position_embeddings/read"
  input: "bert/embeddings/Slice/begin"
  input: "bert/embeddings/Slice/size"
  attr {
    key: "Index"
    value {
      type: DT_INT32
    }
  }
  attr {
    key: "T"
    value {
      type: DT_FLOAT
    }
  }
  attr {
    key: "_output_shapes"
    value {
      list {
        shape {
          dim {
            size: 128
          }
          dim {
            size: 256
          }
        }
      }
    }
  }
}
node {
  name: "bert/embeddings/Reshape_4/shape"
  op: "Const"
  input: "^bert/embeddings/assert_less_equal/Assert/Assert"
  attr {
    key: "_output_shapes"
    value {
      list {
        shape {
          dim {
            size: 3
          }
        }
      }
    }
  }
  attr {
    key: "dtype"
    value {
      type: DT_INT32
    }
  }
  attr {
    key: "value"
    value {
      tensor {
        dtype: DT_INT32
        tensor_shape {
          dim {
            size: 3
          }
        }
        tensor_content: "\001\000\000\000\200\000\000\000\000\001\000\000"
      }
    }
  }
}
node {
  name: "bert/embeddings/Reshape_4"
  op: "Reshape"
  input: "bert/embeddings/Slice"
  input: "bert/embeddings/Reshape_4/shape"
  attr {
    key: "T"
    value {
      type: DT_FLOAT
    }
  }
  attr {
    key: "Tshape"
    value {
      type: DT_INT32
    }
  }
  attr {
    key: "_output_shapes"
    value {
      list {
        shape {
          dim {
            size: 1
          }
          dim {
            size: 128
          }
          dim {
            size: 256
          }
        }
      }
    }
  }
}
node {
  name: "bert/embeddings/add_1"
  op: "Add"
  input: "bert/embeddings/add"
  input: "bert/embeddings/Reshape_4"
  attr {
    key: "T"
    value {
      type: DT_FLOAT
    }
  }
  attr {
    key: "_output_shapes"
    value {
      list {
        shape {
          dim {
            size: 32
          }
          dim {
            size: 128
          }
          dim {
            size: 256
          }
        }
      }
    }
  }
}
node {
  name: "bert/embeddings/LayerNorm/beta/Initializer/zeros"
  op: "Const"
  attr {
    key: "_class"
    value {
      list {
        s: "loc:@bert/embeddings/LayerNorm/beta"
      }
    }
  }
  attr {
    key: "_output_shapes"
    value {
      list {
        shape {
          dim {
            size: 256
          }
        }
      }
    }
  }
  attr {
    key: "dtype"
    value {
      type: DT_FLOAT
    }
  }
  attr {
    key: "value"
    value {
      tensor {
        dtype: DT_FLOAT
        tensor_shape {
          dim {
            size: 256
          }
        }
        float_val: 0.0
      }
    }
  }
}
node {
  name: "bert/embeddings/LayerNorm/beta"
  op: "VariableV2"
  attr {
    key: "_class"
    value {
      list {
        s: "loc:@bert/embeddings/LayerNorm/beta"
      }
    }
  }
  attr {
    key: "_output_shapes"
    value {
      list {
        shape {
          dim {
            size: 256
          }
        }
      }
    }
  }
  attr {
    key: "container"
    value {
      s: ""
    }
  }
  attr {
    key: "dtype"
    value {
      type: DT_FLOAT
    }
  }
  attr {
    key: "shape"
    value {
      shape {
        dim {
          size: 256
        }
      }
    }
  }
  attr {
    key: "shared_name"
    value {
      s: ""
    }
  }
}
node {
  name: "bert/embeddings/LayerNorm/beta/Assign"
  op: "Assign"
  input: "bert/embeddings/LayerNorm/beta"
  input: "bert/embeddings/LayerNorm/beta/Initializer/zeros"
  attr {
    key: "T"
    value {
      type: DT_FLOAT
    }
  }
  attr {
    key: "_class"
    value {
      list {
        s: "loc:@bert/embeddings/LayerNorm/beta"
      }
    }
  }
  attr {
    key: "_output_shapes"
    value {
      list {
        shape {
          dim {
            size: 256
          }
        }
      }
    }
  }
  attr {
    key: "use_locking"
    value {
      b: true
    }
  }
  attr {
    key: "validate_shape"
    value {
      b: true
    }
  }
}
node {
  name: "bert/embeddings/LayerNorm/beta/read"
  op: "Identity"
  input: "bert/embeddings/LayerNorm/beta"
  attr {
    key: "T"
    value {
      type: DT_FLOAT
    }
  }
  attr {
    key: "_class"
    value {
      list {
        s: "loc:@bert/embeddings/LayerNorm/beta"
      }
    }
  }
  attr {
    key: "_output_shapes"
    value {
      list {
        shape {
          dim {
            size: 256
          }
        }
      }
    }
  }
}
node {
  name: "bert/embeddings/LayerNorm/gamma/Initializer/ones"
  op: "Const"
  attr {
    key: "_class"
    value {
      list {
        s: "loc:@bert/embeddings/LayerNorm/gamma"
      }
    }
  }
  attr {
    key: "_output_shapes"
    value {
      list {
        shape {
          dim {
            size: 256
          }
        }
      }
    }
  }
  attr {
    key: "dtype"
    value {
      type: DT_FLOAT
    }
  }
  attr {
    key: "value"
    value {
      tensor {
        dtype: DT_FLOAT
        tensor_shape {
          dim {
            size: 256
          }
        }
        float_val: 1.0
      }
    }
  }
}
node {
  name: "bert/embeddings/LayerNorm/gamma"
  op: "VariableV2"
  attr {
    key: "_class"
    value {
      list {
        s: "loc:@bert/embeddings/LayerNorm/gamma"
      }
    }
  }
  attr {
    key: "_output_shapes"
    value {
      list {
        shape {
          dim {
            size: 256
          }
        }
      }
    }
  }
  attr {
    key: "container"
    value {
      s: ""
    }
  }
  attr {
    key: "dtype"
    value {
      type: DT_FLOAT
    }
  }
  attr {
    key: "shape"
    value {
      shape {
        dim {
          size: 256
        }
      }
    }
  }
  attr {
    key: "shared_name"
    value {
      s: ""
    }
  }
}
node {
  name: "bert/embeddings/LayerNorm/gamma/Assign"
  op: "Assign"
  input: "bert/embeddings/LayerNorm/gamma"
  input: "bert/embeddings/LayerNorm/gamma/Initializer/ones"
  attr {
    key: "T"
    value {
      type: DT_FLOAT
    }
  }
  attr {
    key: "_class"
    value {
      list {
        s: "loc:@bert/embeddings/LayerNorm/gamma"
      }
    }
  }
  attr {
    key: "_output_shapes"
    value {
      list {
        shape {
          dim {
            size: 256
          }
        }
      }
    }
  }
  attr {
    key: "use_locking"
    value {
      b: true
    }
  }
  attr {
    key: "validate_shape"
    value {
      b: true
    }
  }
}
node {
  name: "bert/embeddings/LayerNorm/gamma/read"
  op: "Identity"
  input: "bert/embeddings/LayerNorm/gamma"
  attr {
    key: "T"
    value {
      type: DT_FLOAT
    }
  }
  attr {
    key: "_class"
    value {
      list {
        s: "loc:@bert/embeddings/LayerNorm/gamma"
      }
    }
  }
  attr {
    key: "_output_shapes"
    value {
      list {
        shape {
          dim {
            size: 256
          }
        }
      }
    }
  }
}
node {
  name: "bert/embeddings/LayerNorm/moments/mean/reduction_indices"
  op: "Const"
  attr {
    key: "_output_shapes"
    value {
      list {
        shape {
          dim {
            size: 1
          }
        }
      }
    }
  }
  attr {
    key: "dtype"
    value {
      type: DT_INT32
    }
  }
  attr {
    key: "value"
    value {
      tensor {
        dtype: DT_INT32
        tensor_shape {
          dim {
            size: 1
          }
        }
        int_val: 2
      }
    }
  }
}
node {
  name: "bert/embeddings/LayerNorm/moments/mean"
  op: "Mean"
  input: "bert/embeddings/add_1"
  input: "bert/embeddings/LayerNorm/moments/mean/reduction_indices"
  attr {
    key: "T"
    value {
      type: DT_FLOAT
    }
  }
  attr {
    key: "Tidx"
    value {
      type: DT_INT32
    }
  }
  attr {
    key: "_output_shapes"
    value {
      list {
        shape {
          dim {
            size: 32
          }
          dim {
            size: 128
          }
          dim {
            size: 1
          }
        }
      }
    }
  }
  attr {
    key: "keep_dims"
    value {
      b: true
    }
  }
}
node {
  name: "bert/embeddings/LayerNorm/moments/StopGradient"
  op: "StopGradient"
  input: "bert/embeddings/LayerNorm/moments/mean"
  attr {
    key: "T"
    value {
      type: DT_FLOAT
    }
  }
  attr {
    key: "_output_shapes"
    value {
      list {
        shape {
          dim {
            size: 32
          }
          dim {
            size: 128
          }
          dim {
            size: 1
          }
        }
      }
    }
  }
}
node {
  name: "bert/embeddings/LayerNorm/moments/SquaredDifference"
  op: "SquaredDifference"
  input: "bert/embeddings/add_1"
  input: "bert/embeddings/LayerNorm/moments/StopGradient"
  attr {
    key: "T"
    value {
      type: DT_FLOAT
    }
  }
  attr {
    key: "_output_shapes"
    value {
      list {
        shape {
          dim {
            size: 32
          }
          dim {
            size: 128
          }
          dim {
            size: 256
          }
        }
      }
    }
  }
}
node {
  name: "bert/embeddings/LayerNorm/moments/variance/reduction_indices"
  op: "Const"
  attr {
    key: "_output_shapes"
    value {
      list {
        shape {
          dim {
            size: 1
          }
        }
      }
    }
  }
  attr {
    key: "dtype"
    value {
      type: DT_INT32
    }
  }
  attr {
    key: "value"
    value {
      tensor {
        dtype: DT_INT32
        tensor_shape {
          dim {
            size: 1
          }
        }
        int_val: 2
      }
    }
  }
}
node {
  name: "bert/embeddings/LayerNorm/moments/variance"
  op: "Mean"
  input: "bert/embeddings/LayerNorm/moments/SquaredDifference"
  input: "bert/embeddings/LayerNorm/moments/variance/reduction_indices"
  attr {
    key: "T"
    value {
      type: DT_FLOAT
    }
  }
  attr {
    key: "Tidx"
    value {
      type: DT_INT32
    }
  }
  attr {
    key: "_output_shapes"
    value {
      list {
        shape {
          dim {
            size: 32
          }
          dim {
            size: 128
          }
          dim {
            size: 1
          }
        }
      }
    }
  }
  attr {
    key: "keep_dims"
    value {
      b: true
    }
  }
}
node {
  name: "bert/embeddings/LayerNorm/batchnorm/add/y"
  op: "Const"
  attr {
    key: "_output_shapes"
    value {
      list {
        shape {
        }
      }
    }
  }
  attr {
    key: "dtype"
    value {
      type: DT_FLOAT
    }
  }
  attr {
    key: "value"
    value {
      tensor {
        dtype: DT_FLOAT
        tensor_shape {
        }
        float_val: 1e-12
      }
    }
  }
}
node {
  name: "bert/embeddings/LayerNorm/batchnorm/add"
  op: "Add"
  input: "bert/embeddings/LayerNorm/moments/variance"
  input: "bert/embeddings/LayerNorm/batchnorm/add/y"
  attr {
    key: "T"
    value {
      type: DT_FLOAT
    }
  }
  attr {
    key: "_output_shapes"
    value {
      list {
        shape {
          dim {
            size: 32
          }
          dim {
            size: 128
          }
          dim {
            size: 1
          }
        }
      }
    }
  }
}
node {
  name: "bert/embeddings/LayerNorm/batchnorm/Rsqrt"
  op: "Rsqrt"
  input: "bert/embeddings/LayerNorm/batchnorm/add"
  attr {
    key: "T"
    value {
      type: DT_FLOAT
    }
  }
  attr {
    key: "_output_shapes"
    value {
      list {
        shape {
          dim {
            size: 32
          }
          dim {
            size: 128
          }
          dim {
            size: 1
          }
        }
      }
    }
  }
}
node {
  name: "bert/embeddings/LayerNorm/batchnorm/mul"
  op: "Mul"
  input: "bert/embeddings/LayerNorm/batchnorm/Rsqrt"
  input: "bert/embeddings/LayerNorm/gamma/read"
  attr {
    key: "T"
    value {
      type: DT_FLOAT
    }
  }
  attr {
    key: "_output_shapes"
    value {
      list {
        shape {
          dim {
            size: 32
          }
          dim {
            size: 128
          }
          dim {
            size: 256
          }
        }
      }
    }
  }
}
node {
  name: "bert/embeddings/LayerNorm/batchnorm/mul_1"
  op: "Mul"
  input: "bert/embeddings/add_1"
  input: "bert/embeddings/LayerNorm/batchnorm/mul"
  attr {
    key: "T"
    value {
      type: DT_FLOAT
    }
  }
  attr {
    key: "_output_shapes"
    value {
      list {
        shape {
          dim {
            size: 32
          }
          dim {
            size: 128
          }
          dim {
            size: 256
          }
        }
      }
    }
  }
}
node {
  name: "bert/embeddings/LayerNorm/batchnorm/mul_2"
  op: "Mul"
  input: "bert/embeddings/LayerNorm/moments/mean"
  input: "bert/embeddings/LayerNorm/batchnorm/mul"
  attr {
    key: "T"
    value {
      type: DT_FLOAT
    }
  }
  attr {
    key: "_output_shapes"
    value {
      list {
        shape {
          dim {
            size: 32
          }
          dim {
            size: 128
          }
          dim {
            size: 256
          }
        }
      }
    }
  }
}
node {
  name: "bert/embeddings/LayerNorm/batchnorm/sub"
  op: "Sub"
  input: "bert/embeddings/LayerNorm/beta/read"
  input: "bert/embeddings/LayerNorm/batchnorm/mul_2"
  attr {
    key: "T"
    value {
      type: DT_FLOAT
    }
  }
  attr {
    key: "_output_shapes"
    value {
      list {
        shape {
          dim {
            size: 32
          }
          dim {
            size: 128
          }
          dim {
            size: 256
          }
        }
      }
    }
  }
}
node {
  name: "bert/embeddings/LayerNorm/batchnorm/add_1"
  op: "Add"
  input: "bert/embeddings/LayerNorm/batchnorm/mul_1"
  input: "bert/embeddings/LayerNorm/batchnorm/sub"
  attr {
    key: "T"
    value {
      type: DT_FLOAT
    }
  }
  attr {
    key: "_output_shapes"
    value {
      list {
        shape {
          dim {
            size: 32
          }
          dim {
            size: 128
          }
          dim {
            size: 256
          }
        }
      }
    }
  }
}
node {
  name: "bert/embeddings/dropout/keep_prob"
  op: "Const"
  attr {
    key: "_output_shapes"
    value {
      list {
        shape {
        }
      }
    }
  }
  attr {
    key: "dtype"
    value {
      type: DT_FLOAT
    }
  }
  attr {
    key: "value"
    value {
      tensor {
        dtype: DT_FLOAT
        tensor_shape {
        }
        float_val: 0.89999998
      }
    }
  }
}
node {
  name: "bert/embeddings/dropout/Shape"
  op: "Const"
  attr {
    key: "_output_shapes"
    value {
      list {
        shape {
          dim {
            size: 3
          }
        }
      }
    }
  }
  attr {
    key: "dtype"
    value {
      type: DT_INT32
    }
  }
  attr {
    key: "value"
    value {
      tensor {
        dtype: DT_INT32
        tensor_shape {
          dim {
            size: 3
          }
        }
        tensor_content: " \000\000\000\200\000\000\000\000\001\000\000"
      }
    }
  }
}
node {
  name: "bert/embeddings/dropout/random_uniform/min"
  op: "Const"
  attr {
    key: "_output_shapes"
    value {
      list {
        shape {
        }
      }
    }
  }
  attr {
    key: "dtype"
    value {
      type: DT_FLOAT
    }
  }
  attr {
    key: "value"
    value {
      tensor {
        dtype: DT_FLOAT
        tensor_shape {
        }
        float_val: 0.0
      }
    }
  }
}
node {
  name: "bert/embeddings/dropout/random_uniform/max"
  op: "Const"
  attr {
    key: "_output_shapes"
    value {
      list {
        shape {
        }
      }
    }
  }
  attr {
    key: "dtype"
    value {
      type: DT_FLOAT
    }
  }
  attr {
    key: "value"
    value {
      tensor {
        dtype: DT_FLOAT
        tensor_shape {
        }
        float_val: 1.0
      }
    }
  }
}
node {
  name: "bert/embeddings/dropout/random_uniform/RandomUniform"
  op: "RandomUniform"
  input: "bert/embeddings/dropout/Shape"
  attr {
    key: "T"
    value {
      type: DT_INT32
    }
  }
  attr {
    key: "_output_shapes"
    value {
      list {
        shape {
          dim {
            size: 32
          }
          dim {
            size: 128
          }
          dim {
            size: 256
          }
        }
      }
    }
  }
  attr {
    key: "dtype"
    value {
      type: DT_FLOAT
    }
  }
  attr {
    key: "seed"
    value {
      i: 0
    }
  }
  attr {
    key: "seed2"
    value {
      i: 0
    }
  }
}
node {
  name: "bert/embeddings/dropout/random_uniform/sub"
  op: "Sub"
  input: "bert/embeddings/dropout/random_uniform/max"
  input: "bert/embeddings/dropout/random_uniform/min"
  attr {
    key: "T"
    value {
      type: DT_FLOAT
    }
  }
  attr {
    key: "_output_shapes"
    value {
      list {
        shape {
        }
      }
    }
  }
}
node {
  name: "bert/embeddings/dropout/random_uniform/mul"
  op: "Mul"
  input: "bert/embeddings/dropout/random_uniform/RandomUniform"
  input: "bert/embeddings/dropout/random_uniform/sub"
  attr {
    key: "T"
    value {
      type: DT_FLOAT
    }
  }
  attr {
    key: "_output_shapes"
    value {
      list {
        shape {
          dim {
            size: 32
          }
          dim {
            size: 128
          }
          dim {
            size: 256
          }
        }
      }
    }
  }
}
node {
  name: "bert/embeddings/dropout/random_uniform"
  op: "Add"
  input: "bert/embeddings/dropout/random_uniform/mul"
  input: "bert/embeddings/dropout/random_uniform/min"
  attr {
    key: "T"
    value {
      type: DT_FLOAT
    }
  }
  attr {
    key: "_output_shapes"
    value {
      list {
        shape {
          dim {
            size: 32
          }
          dim {
            size: 128
          }
          dim {
            size: 256
          }
        }
      }
    }
  }
}
node {
  name: "bert/embeddings/dropout/add"
  op: "Add"
  input: "bert/embeddings/dropout/keep_prob"
  input: "bert/embeddings/dropout/random_uniform"
  attr {
    key: "T"
    value {
      type: DT_FLOAT
    }
  }
  attr {
    key: "_output_shapes"
    value {
      list {
        shape {
          dim {
            size: 32
          }
          dim {
            size: 128
          }
          dim {
            size: 256
          }
        }
      }
    }
  }
}
node {
  name: "bert/embeddings/dropout/Floor"
  op: "Floor"
  input: "bert/embeddings/dropout/add"
  attr {
    key: "T"
    value {
      type: DT_FLOAT
    }
  }
  attr {
    key: "_output_shapes"
    value {
      list {
        shape {
          dim {
            size: 32
          }
          dim {
            size: 128
          }
          dim {
            size: 256
          }
        }
      }
    }
  }
}
node {
  name: "bert/embeddings/dropout/div"
  op: "RealDiv"
  input: "bert/embeddings/LayerNorm/batchnorm/add_1"
  input: "bert/embeddings/dropout/keep_prob"
  attr {
    key: "T"
    value {
      type: DT_FLOAT
    }
  }
  attr {
    key: "_output_shapes"
    value {
      list {
        shape {
          dim {
            size: 32
          }
          dim {
            size: 128
          }
          dim {
            size: 256
          }
        }
      }
    }
  }
}
node {
  name: "bert/embeddings/dropout/mul"
  op: "Mul"
  input: "bert/embeddings/dropout/div"
  input: "bert/embeddings/dropout/Floor"
  attr {
    key: "T"
    value {
      type: DT_FLOAT
    }
  }
  attr {
    key: "_output_shapes"
    value {
      list {
        shape {
          dim {
            size: 32
          }
          dim {
            size: 128
          }
          dim {
            size: 256
          }
        }
      }
    }
  }
}
node {
  name: "bert/encoder/Reshape/shape"
  op: "Const"
  attr {
    key: "_output_shapes"
    value {
      list {
        shape {
          dim {
            size: 3
          }
        }
      }
    }
  }
  attr {
    key: "dtype"
    value {
      type: DT_INT32
    }
  }
  attr {
    key: "value"
    value {
      tensor {
        dtype: DT_INT32
        tensor_shape {
          dim {
            size: 3
          }
        }
        tensor_content: " \000\000\000\001\000\000\000\200\000\000\000"
      }
    }
  }
}
node {
  name: "bert/encoder/Reshape"
  op: "Reshape"
  input: "IteratorGetNext:1"
  input: "bert/encoder/Reshape/shape"
  attr {
    key: "T"
    value {
      type: DT_INT32
    }
  }
  attr {
    key: "Tshape"
    value {
      type: DT_INT32
    }
  }
  attr {
    key: "_output_shapes"
    value {
      list {
        shape {
          dim {
            size: 32
          }
          dim {
            size: 1
          }
          dim {
            size: 128
          }
        }
      }
    }
  }
}
node {
  name: "bert/encoder/Cast"
  op: "Cast"
  input: "bert/encoder/Reshape"
  attr {
    key: "DstT"
    value {
      type: DT_FLOAT
    }
  }
  attr {
    key: "SrcT"
    value {
      type: DT_INT32
    }
  }
  attr {
    key: "Truncate"
    value {
      b: false
    }
  }
  attr {
    key: "_output_shapes"
    value {
      list {
        shape {
          dim {
            size: 32
          }
          dim {
            size: 1
          }
          dim {
            size: 128
          }
        }
      }
    }
  }
}
node {
  name: "bert/encoder/ones/shape_as_tensor"
  op: "Const"
  attr {
    key: "_output_shapes"
    value {
      list {
        shape {
          dim {
            size: 3
          }
        }
      }
    }
  }
  attr {
    key: "dtype"
    value {
      type: DT_INT32
    }
  }
  attr {
    key: "value"
    value {
      tensor {
        dtype: DT_INT32
        tensor_shape {
          dim {
            size: 3
          }
        }
        tensor_content: " \000\000\000\200\000\000\000\001\000\000\000"
      }
    }
  }
}
node {
  name: "bert/encoder/ones/Const"
  op: "Const"
  attr {
    key: "_output_shapes"
    value {
      list {
        shape {
        }
      }
    }
  }
  attr {
    key: "dtype"
    value {
      type: DT_FLOAT
    }
  }
  attr {
    key: "value"
    value {
      tensor {
        dtype: DT_FLOAT
        tensor_shape {
        }
        float_val: 1.0
      }
    }
  }
}
node {
  name: "bert/encoder/ones"
  op: "Fill"
  input: "bert/encoder/ones/shape_as_tensor"
  input: "bert/encoder/ones/Const"
  attr {
    key: "T"
    value {
      type: DT_FLOAT
    }
  }
  attr {
    key: "_output_shapes"
    value {
      list {
        shape {
          dim {
            size: 32
          }
          dim {
            size: 128
          }
          dim {
            size: 1
          }
        }
      }
    }
  }
  attr {
    key: "index_type"
    value {
      type: DT_INT32
    }
  }
}
node {
  name: "bert/encoder/mul"
  op: "Mul"
  input: "bert/encoder/ones"
  input: "bert/encoder/Cast"
  attr {
    key: "T"
    value {
      type: DT_FLOAT
    }
  }
  attr {
    key: "_output_shapes"
    value {
      list {
        shape {
          dim {
            size: 32
          }
          dim {
            size: 128
          }
          dim {
            size: 128
          }
        }
      }
    }
  }
}
node {
  name: "bert/encoder/Reshape_1/shape"
  op: "Const"
  attr {
    key: "_output_shapes"
    value {
      list {
        shape {
          dim {
            size: 2
          }
        }
      }
    }
  }
  attr {
    key: "dtype"
    value {
      type: DT_INT32
    }
  }
  attr {
    key: "value"
    value {
      tensor {
        dtype: DT_INT32
        tensor_shape {
          dim {
            size: 2
          }
        }
        tensor_content: "\377\377\377\377\000\001\000\000"
      }
    }
  }
}
node {
  name: "bert/encoder/Reshape_1"
  op: "Reshape"
  input: "bert/embeddings/dropout/mul"
  input: "bert/encoder/Reshape_1/shape"
  attr {
    key: "T"
    value {
      type: DT_FLOAT
    }
  }
  attr {
    key: "Tshape"
    value {
      type: DT_INT32
    }
  }
  attr {
    key: "_output_shapes"
    value {
      list {
        shape {
          dim {
            size: 4096
          }
          dim {
            size: 256
          }
        }
      }
    }
  }
}
node {
  name: "bert/encoder/layer_0/attention/self/query/kernel/Initializer/truncated_normal/shape"
  op: "Const"
  attr {
    key: "_class"
    value {
      list {
        s: "loc:@bert/encoder/layer_0/attention/self/query/kernel"
      }
    }
  }
  attr {
    key: "_output_shapes"
    value {
      list {
        shape {
          dim {
            size: 2
          }
        }
      }
    }
  }
  attr {
    key: "dtype"
    value {
      type: DT_INT32
    }
  }
  attr {
    key: "value"
    value {
      tensor {
        dtype: DT_INT32
        tensor_shape {
          dim {
            size: 2
          }
        }
        tensor_content: "\000\001\000\000\000\001\000\000"
      }
    }
  }
}
node {
  name: "bert/encoder/layer_0/attention/self/query/kernel/Initializer/truncated_normal/mean"
  op: "Const"
  attr {
    key: "_class"
    value {
      list {
        s: "loc:@bert/encoder/layer_0/attention/self/query/kernel"
      }
    }
  }
  attr {
    key: "_output_shapes"
    value {
      list {
        shape {
        }
      }
    }
  }
  attr {
    key: "dtype"
    value {
      type: DT_FLOAT
    }
  }
  attr {
    key: "value"
    value {
      tensor {
        dtype: DT_FLOAT
        tensor_shape {
        }
        float_val: 0.0
      }
    }
  }
}
node {
  name: "bert/encoder/layer_0/attention/self/query/kernel/Initializer/truncated_normal/stddev"
  op: "Const"
  attr {
    key: "_class"
    value {
      list {
        s: "loc:@bert/encoder/layer_0/attention/self/query/kernel"
      }
    }
  }
  attr {
    key: "_output_shapes"
    value {
      list {
        shape {
        }
      }
    }
  }
  attr {
    key: "dtype"
    value {
      type: DT_FLOAT
    }
  }
  attr {
    key: "value"
    value {
      tensor {
        dtype: DT_FLOAT
        tensor_shape {
        }
        float_val: 0.02
      }
    }
  }
}
node {
  name: "bert/encoder/layer_0/attention/self/query/kernel/Initializer/truncated_normal/TruncatedNormal"
  op: "TruncatedNormal"
  input: "bert/encoder/layer_0/attention/self/query/kernel/Initializer/truncated_normal/shape"
  attr {
    key: "T"
    value {
      type: DT_INT32
    }
  }
  attr {
    key: "_class"
    value {
      list {
        s: "loc:@bert/encoder/layer_0/attention/self/query/kernel"
      }
    }
  }
  attr {
    key: "_output_shapes"
    value {
      list {
        shape {
          dim {
            size: 256
          }
          dim {
            size: 256
          }
        }
      }
    }
  }
  attr {
    key: "dtype"
    value {
      type: DT_FLOAT
    }
  }
  attr {
    key: "seed"
    value {
      i: 0
    }
  }
  attr {
    key: "seed2"
    value {
      i: 0
    }
  }
}
node {
  name: "bert/encoder/layer_0/attention/self/query/kernel/Initializer/truncated_normal/mul"
  op: "Mul"
  input: "bert/encoder/layer_0/attention/self/query/kernel/Initializer/truncated_normal/TruncatedNormal"
  input: "bert/encoder/layer_0/attention/self/query/kernel/Initializer/truncated_normal/stddev"
  attr {
    key: "T"
    value {
      type: DT_FLOAT
    }
  }
  attr {
    key: "_class"
    value {
      list {
        s: "loc:@bert/encoder/layer_0/attention/self/query/kernel"
      }
    }
  }
  attr {
    key: "_output_shapes"
    value {
      list {
        shape {
          dim {
            size: 256
          }
          dim {
            size: 256
          }
        }
      }
    }
  }
}
node {
  name: "bert/encoder/layer_0/attention/self/query/kernel/Initializer/truncated_normal"
  op: "Add"
  input: "bert/encoder/layer_0/attention/self/query/kernel/Initializer/truncated_normal/mul"
  input: "bert/encoder/layer_0/attention/self/query/kernel/Initializer/truncated_normal/mean"
  attr {
    key: "T"
    value {
      type: DT_FLOAT
    }
  }
  attr {
    key: "_class"
    value {
      list {
        s: "loc:@bert/encoder/layer_0/attention/self/query/kernel"
      }
    }
  }
  attr {
    key: "_output_shapes"
    value {
      list {
        shape {
          dim {
            size: 256
          }
          dim {
            size: 256
          }
        }
      }
    }
  }
}
node {
  name: "bert/encoder/layer_0/attention/self/query/kernel"
  op: "VariableV2"
  attr {
    key: "_class"
    value {
      list {
        s: "loc:@bert/encoder/layer_0/attention/self/query/kernel"
      }
    }
  }
  attr {
    key: "_output_shapes"
    value {
      list {
        shape {
          dim {
            size: 256
          }
          dim {
            size: 256
          }
        }
      }
    }
  }
  attr {
    key: "container"
    value {
      s: ""
    }
  }
  attr {
    key: "dtype"
    value {
      type: DT_FLOAT
    }
  }
  attr {
    key: "shape"
    value {
      shape {
        dim {
          size: 256
        }
        dim {
          size: 256
        }
      }
    }
  }
  attr {
    key: "shared_name"
    value {
      s: ""
    }
  }
}
node {
  name: "bert/encoder/layer_0/attention/self/query/kernel/Assign"
  op: "Assign"
  input: "bert/encoder/layer_0/attention/self/query/kernel"
  input: "bert/encoder/layer_0/attention/self/query/kernel/Initializer/truncated_normal"
  attr {
    key: "T"
    value {
      type: DT_FLOAT
    }
  }
  attr {
    key: "_class"
    value {
      list {
        s: "loc:@bert/encoder/layer_0/attention/self/query/kernel"
      }
    }
  }
  attr {
    key: "_output_shapes"
    value {
      list {
        shape {
          dim {
            size: 256
          }
          dim {
            size: 256
          }
        }
      }
    }
  }
  attr {
    key: "use_locking"
    value {
      b: true
    }
  }
  attr {
    key: "validate_shape"
    value {
      b: true
    }
  }
}
node {
  name: "bert/encoder/layer_0/attention/self/query/kernel/read"
  op: "Identity"
  input: "bert/encoder/layer_0/attention/self/query/kernel"
  attr {
    key: "T"
    value {
      type: DT_FLOAT
    }
  }
  attr {
    key: "_class"
    value {
      list {
        s: "loc:@bert/encoder/layer_0/attention/self/query/kernel"
      }
    }
  }
  attr {
    key: "_output_shapes"
    value {
      list {
        shape {
          dim {
            size: 256
          }
          dim {
            size: 256
          }
        }
      }
    }
  }
}
node {
  name: "bert/encoder/layer_0/attention/self/query/bias/Initializer/zeros"
  op: "Const"
  attr {
    key: "_class"
    value {
      list {
        s: "loc:@bert/encoder/layer_0/attention/self/query/bias"
      }
    }
  }
  attr {
    key: "_output_shapes"
    value {
      list {
        shape {
          dim {
            size: 256
          }
        }
      }
    }
  }
  attr {
    key: "dtype"
    value {
      type: DT_FLOAT
    }
  }
  attr {
    key: "value"
    value {
      tensor {
        dtype: DT_FLOAT
        tensor_shape {
          dim {
            size: 256
          }
        }
        float_val: 0.0
      }
    }
  }
}
node {
  name: "bert/encoder/layer_0/attention/self/query/bias"
  op: "VariableV2"
  attr {
    key: "_class"
    value {
      list {
        s: "loc:@bert/encoder/layer_0/attention/self/query/bias"
      }
    }
  }
  attr {
    key: "_output_shapes"
    value {
      list {
        shape {
          dim {
            size: 256
          }
        }
      }
    }
  }
  attr {
    key: "container"
    value {
      s: ""
    }
  }
  attr {
    key: "dtype"
    value {
      type: DT_FLOAT
    }
  }
  attr {
    key: "shape"
    value {
      shape {
        dim {
          size: 256
        }
      }
    }
  }
  attr {
    key: "shared_name"
    value {
      s: ""
    }
  }
}
node {
  name: "bert/encoder/layer_0/attention/self/query/bias/Assign"
  op: "Assign"
  input: "bert/encoder/layer_0/attention/self/query/bias"
  input: "bert/encoder/layer_0/attention/self/query/bias/Initializer/zeros"
  attr {
    key: "T"
    value {
      type: DT_FLOAT
    }
  }
  attr {
    key: "_class"
    value {
      list {
        s: "loc:@bert/encoder/layer_0/attention/self/query/bias"
      }
    }
  }
  attr {
    key: "_output_shapes"
    value {
      list {
        shape {
          dim {
            size: 256
          }
        }
      }
    }
  }
  attr {
    key: "use_locking"
    value {
      b: true
    }
  }
  attr {
    key: "validate_shape"
    value {
      b: true
    }
  }
}
node {
  name: "bert/encoder/layer_0/attention/self/query/bias/read"
  op: "Identity"
  input: "bert/encoder/layer_0/attention/self/query/bias"
  attr {
    key: "T"
    value {
      type: DT_FLOAT
    }
  }
  attr {
    key: "_class"
    value {
      list {
        s: "loc:@bert/encoder/layer_0/attention/self/query/bias"
      }
    }
  }
  attr {
    key: "_output_shapes"
    value {
      list {
        shape {
          dim {
            size: 256
          }
        }
      }
    }
  }
}
node {
  name: "bert/encoder/layer_0/attention/self/query/MatMul"
  op: "MatMul"
  input: "bert/encoder/Reshape_1"
  input: "bert/encoder/layer_0/attention/self/query/kernel/read"
  attr {
    key: "T"
    value {
      type: DT_FLOAT
    }
  }
  attr {
    key: "_output_shapes"
    value {
      list {
        shape {
          dim {
            size: 4096
          }
          dim {
            size: 256
          }
        }
      }
    }
  }
  attr {
    key: "transpose_a"
    value {
      b: false
    }
  }
  attr {
    key: "transpose_b"
    value {
      b: false
    }
  }
}
node {
  name: "bert/encoder/layer_0/attention/self/query/BiasAdd"
  op: "BiasAdd"
  input: "bert/encoder/layer_0/attention/self/query/MatMul"
  input: "bert/encoder/layer_0/attention/self/query/bias/read"
  attr {
    key: "T"
    value {
      type: DT_FLOAT
    }
  }
  attr {
    key: "_output_shapes"
    value {
      list {
        shape {
          dim {
            size: 4096
          }
          dim {
            size: 256
          }
        }
      }
    }
  }
  attr {
    key: "data_format"
    value {
      s: "NHWC"
    }
  }
}
node {
  name: "bert/encoder/layer_0/attention/self/key/kernel/Initializer/truncated_normal/shape"
  op: "Const"
  attr {
    key: "_class"
    value {
      list {
        s: "loc:@bert/encoder/layer_0/attention/self/key/kernel"
      }
    }
  }
  attr {
    key: "_output_shapes"
    value {
      list {
        shape {
          dim {
            size: 2
          }
        }
      }
    }
  }
  attr {
    key: "dtype"
    value {
      type: DT_INT32
    }
  }
  attr {
    key: "value"
    value {
      tensor {
        dtype: DT_INT32
        tensor_shape {
          dim {
            size: 2
          }
        }
        tensor_content: "\000\001\000\000\000\001\000\000"
      }
    }
  }
}
node {
  name: "bert/encoder/layer_0/attention/self/key/kernel/Initializer/truncated_normal/mean"
  op: "Const"
  attr {
    key: "_class"
    value {
      list {
        s: "loc:@bert/encoder/layer_0/attention/self/key/kernel"
      }
    }
  }
  attr {
    key: "_output_shapes"
    value {
      list {
        shape {
        }
      }
    }
  }
  attr {
    key: "dtype"
    value {
      type: DT_FLOAT
    }
  }
  attr {
    key: "value"
    value {
      tensor {
        dtype: DT_FLOAT
        tensor_shape {
        }
        float_val: 0.0
      }
    }
  }
}
node {
  name: "bert/encoder/layer_0/attention/self/key/kernel/Initializer/truncated_normal/stddev"
  op: "Const"
  attr {
    key: "_class"
    value {
      list {
        s: "loc:@bert/encoder/layer_0/attention/self/key/kernel"
      }
    }
  }
  attr {
    key: "_output_shapes"
    value {
      list {
        shape {
        }
      }
    }
  }
  attr {
    key: "dtype"
    value {
      type: DT_FLOAT
    }
  }
  attr {
    key: "value"
    value {
      tensor {
        dtype: DT_FLOAT
        tensor_shape {
        }
        float_val: 0.02
      }
    }
  }
}
node {
  name: "bert/encoder/layer_0/attention/self/key/kernel/Initializer/truncated_normal/TruncatedNormal"
  op: "TruncatedNormal"
  input: "bert/encoder/layer_0/attention/self/key/kernel/Initializer/truncated_normal/shape"
  attr {
    key: "T"
    value {
      type: DT_INT32
    }
  }
  attr {
    key: "_class"
    value {
      list {
        s: "loc:@bert/encoder/layer_0/attention/self/key/kernel"
      }
    }
  }
  attr {
    key: "_output_shapes"
    value {
      list {
        shape {
          dim {
            size: 256
          }
          dim {
            size: 256
          }
        }
      }
    }
  }
  attr {
    key: "dtype"
    value {
      type: DT_FLOAT
    }
  }
  attr {
    key: "seed"
    value {
      i: 0
    }
  }
  attr {
    key: "seed2"
    value {
      i: 0
    }
  }
}
node {
  name: "bert/encoder/layer_0/attention/self/key/kernel/Initializer/truncated_normal/mul"
  op: "Mul"
  input: "bert/encoder/layer_0/attention/self/key/kernel/Initializer/truncated_normal/TruncatedNormal"
  input: "bert/encoder/layer_0/attention/self/key/kernel/Initializer/truncated_normal/stddev"
  attr {
    key: "T"
    value {
      type: DT_FLOAT
    }
  }
  attr {
    key: "_class"
    value {
      list {
        s: "loc:@bert/encoder/layer_0/attention/self/key/kernel"
      }
    }
  }
  attr {
    key: "_output_shapes"
    value {
      list {
        shape {
          dim {
            size: 256
          }
          dim {
            size: 256
          }
        }
      }
    }
  }
}
node {
  name: "bert/encoder/layer_0/attention/self/key/kernel/Initializer/truncated_normal"
  op: "Add"
  input: "bert/encoder/layer_0/attention/self/key/kernel/Initializer/truncated_normal/mul"
  input: "bert/encoder/layer_0/attention/self/key/kernel/Initializer/truncated_normal/mean"
  attr {
    key: "T"
    value {
      type: DT_FLOAT
    }
  }
  attr {
    key: "_class"
    value {
      list {
        s: "loc:@bert/encoder/layer_0/attention/self/key/kernel"
      }
    }
  }
  attr {
    key: "_output_shapes"
    value {
      list {
        shape {
          dim {
            size: 256
          }
          dim {
            size: 256
          }
        }
      }
    }
  }
}
node {
  name: "bert/encoder/layer_0/attention/self/key/kernel"
  op: "VariableV2"
  attr {
    key: "_class"
    value {
      list {
        s: "loc:@bert/encoder/layer_0/attention/self/key/kernel"
      }
    }
  }
  attr {
    key: "_output_shapes"
    value {
      list {
        shape {
          dim {
            size: 256
          }
          dim {
            size: 256
          }
        }
      }
    }
  }
  attr {
    key: "container"
    value {
      s: ""
    }
  }
  attr {
    key: "dtype"
    value {
      type: DT_FLOAT
    }
  }
  attr {
    key: "shape"
    value {
      shape {
        dim {
          size: 256
        }
        dim {
          size: 256
        }
      }
    }
  }
  attr {
    key: "shared_name"
    value {
      s: ""
    }
  }
}
node {
  name: "bert/encoder/layer_0/attention/self/key/kernel/Assign"
  op: "Assign"
  input: "bert/encoder/layer_0/attention/self/key/kernel"
  input: "bert/encoder/layer_0/attention/self/key/kernel/Initializer/truncated_normal"
  attr {
    key: "T"
    value {
      type: DT_FLOAT
    }
  }
  attr {
    key: "_class"
    value {
      list {
        s: "loc:@bert/encoder/layer_0/attention/self/key/kernel"
      }
    }
  }
  attr {
    key: "_output_shapes"
    value {
      list {
        shape {
          dim {
            size: 256
          }
          dim {
            size: 256
          }
        }
      }
    }
  }
  attr {
    key: "use_locking"
    value {
      b: true
    }
  }
  attr {
    key: "validate_shape"
    value {
      b: true
    }
  }
}
node {
  name: "bert/encoder/layer_0/attention/self/key/kernel/read"
  op: "Identity"
  input: "bert/encoder/layer_0/attention/self/key/kernel"
  attr {
    key: "T"
    value {
      type: DT_FLOAT
    }
  }
  attr {
    key: "_class"
    value {
      list {
        s: "loc:@bert/encoder/layer_0/attention/self/key/kernel"
      }
    }
  }
  attr {
    key: "_output_shapes"
    value {
      list {
        shape {
          dim {
            size: 256
          }
          dim {
            size: 256
          }
        }
      }
    }
  }
}
node {
  name: "bert/encoder/layer_0/attention/self/key/bias/Initializer/zeros"
  op: "Const"
  attr {
    key: "_class"
    value {
      list {
        s: "loc:@bert/encoder/layer_0/attention/self/key/bias"
      }
    }
  }
  attr {
    key: "_output_shapes"
    value {
      list {
        shape {
          dim {
            size: 256
          }
        }
      }
    }
  }
  attr {
    key: "dtype"
    value {
      type: DT_FLOAT
    }
  }
  attr {
    key: "value"
    value {
      tensor {
        dtype: DT_FLOAT
        tensor_shape {
          dim {
            size: 256
          }
        }
        float_val: 0.0
      }
    }
  }
}
node {
  name: "bert/encoder/layer_0/attention/self/key/bias"
  op: "VariableV2"
  attr {
    key: "_class"
    value {
      list {
        s: "loc:@bert/encoder/layer_0/attention/self/key/bias"
      }
    }
  }
  attr {
    key: "_output_shapes"
    value {
      list {
        shape {
          dim {
            size: 256
          }
        }
      }
    }
  }
  attr {
    key: "container"
    value {
      s: ""
    }
  }
  attr {
    key: "dtype"
    value {
      type: DT_FLOAT
    }
  }
  attr {
    key: "shape"
    value {
      shape {
        dim {
          size: 256
        }
      }
    }
  }
  attr {
    key: "shared_name"
    value {
      s: ""
    }
  }
}
node {
  name: "bert/encoder/layer_0/attention/self/key/bias/Assign"
  op: "Assign"
  input: "bert/encoder/layer_0/attention/self/key/bias"
  input: "bert/encoder/layer_0/attention/self/key/bias/Initializer/zeros"
  attr {
    key: "T"
    value {
      type: DT_FLOAT
    }
  }
  attr {
    key: "_class"
    value {
      list {
        s: "loc:@bert/encoder/layer_0/attention/self/key/bias"
      }
    }
  }
  attr {
    key: "_output_shapes"
    value {
      list {
        shape {
          dim {
            size: 256
          }
        }
      }
    }
  }
  attr {
    key: "use_locking"
    value {
      b: true
    }
  }
  attr {
    key: "validate_shape"
    value {
      b: true
    }
  }
}
node {
  name: "bert/encoder/layer_0/attention/self/key/bias/read"
  op: "Identity"
  input: "bert/encoder/layer_0/attention/self/key/bias"
  attr {
    key: "T"
    value {
      type: DT_FLOAT
    }
  }
  attr {
    key: "_class"
    value {
      list {
        s: "loc:@bert/encoder/layer_0/attention/self/key/bias"
      }
    }
  }
  attr {
    key: "_output_shapes"
    value {
      list {
        shape {
          dim {
            size: 256
          }
        }
      }
    }
  }
}
node {
  name: "bert/encoder/layer_0/attention/self/key/MatMul"
  op: "MatMul"
  input: "bert/encoder/Reshape_1"
  input: "bert/encoder/layer_0/attention/self/key/kernel/read"
  attr {
    key: "T"
    value {
      type: DT_FLOAT
    }
  }
  attr {
    key: "_output_shapes"
    value {
      list {
        shape {
          dim {
            size: 4096
          }
          dim {
            size: 256
          }
        }
      }
    }
  }
  attr {
    key: "transpose_a"
    value {
      b: false
    }
  }
  attr {
    key: "transpose_b"
    value {
      b: false
    }
  }
}
node {
  name: "bert/encoder/layer_0/attention/self/key/BiasAdd"
  op: "BiasAdd"
  input: "bert/encoder/layer_0/attention/self/key/MatMul"
  input: "bert/encoder/layer_0/attention/self/key/bias/read"
  attr {
    key: "T"
    value {
      type: DT_FLOAT
    }
  }
  attr {
    key: "_output_shapes"
    value {
      list {
        shape {
          dim {
            size: 4096
          }
          dim {
            size: 256
          }
        }
      }
    }
  }
  attr {
    key: "data_format"
    value {
      s: "NHWC"
    }
  }
}
node {
  name: "bert/encoder/layer_0/attention/self/value/kernel/Initializer/truncated_normal/shape"
  op: "Const"
  attr {
    key: "_class"
    value {
      list {
        s: "loc:@bert/encoder/layer_0/attention/self/value/kernel"
      }
    }
  }
  attr {
    key: "_output_shapes"
    value {
      list {
        shape {
          dim {
            size: 2
          }
        }
      }
    }
  }
  attr {
    key: "dtype"
    value {
      type: DT_INT32
    }
  }
  attr {
    key: "value"
    value {
      tensor {
        dtype: DT_INT32
        tensor_shape {
          dim {
            size: 2
          }
        }
        tensor_content: "\000\001\000\000\000\001\000\000"
      }
    }
  }
}
node {
  name: "bert/encoder/layer_0/attention/self/value/kernel/Initializer/truncated_normal/mean"
  op: "Const"
  attr {
    key: "_class"
    value {
      list {
        s: "loc:@bert/encoder/layer_0/attention/self/value/kernel"
      }
    }
  }
  attr {
    key: "_output_shapes"
    value {
      list {
        shape {
        }
      }
    }
  }
  attr {
    key: "dtype"
    value {
      type: DT_FLOAT
    }
  }
  attr {
    key: "value"
    value {
      tensor {
        dtype: DT_FLOAT
        tensor_shape {
        }
        float_val: 0.0
      }
    }
  }
}
node {
  name: "bert/encoder/layer_0/attention/self/value/kernel/Initializer/truncated_normal/stddev"
  op: "Const"
  attr {
    key: "_class"
    value {
      list {
        s: "loc:@bert/encoder/layer_0/attention/self/value/kernel"
      }
    }
  }
  attr {
    key: "_output_shapes"
    value {
      list {
        shape {
        }
      }
    }
  }
  attr {
    key: "dtype"
    value {
      type: DT_FLOAT
    }
  }
  attr {
    key: "value"
    value {
      tensor {
        dtype: DT_FLOAT
        tensor_shape {
        }
        float_val: 0.02
      }
    }
  }
}
node {
  name: "bert/encoder/layer_0/attention/self/value/kernel/Initializer/truncated_normal/TruncatedNormal"
  op: "TruncatedNormal"
  input: "bert/encoder/layer_0/attention/self/value/kernel/Initializer/truncated_normal/shape"
  attr {
    key: "T"
    value {
      type: DT_INT32
    }
  }
  attr {
    key: "_class"
    value {
      list {
        s: "loc:@bert/encoder/layer_0/attention/self/value/kernel"
      }
    }
  }
  attr {
    key: "_output_shapes"
    value {
      list {
        shape {
          dim {
            size: 256
          }
          dim {
            size: 256
          }
        }
      }
    }
  }
  attr {
    key: "dtype"
    value {
      type: DT_FLOAT
    }
  }
  attr {
    key: "seed"
    value {
      i: 0
    }
  }
  attr {
    key: "seed2"
    value {
      i: 0
    }
  }
}
node {
  name: "bert/encoder/layer_0/attention/self/value/kernel/Initializer/truncated_normal/mul"
  op: "Mul"
  input: "bert/encoder/layer_0/attention/self/value/kernel/Initializer/truncated_normal/TruncatedNormal"
  input: "bert/encoder/layer_0/attention/self/value/kernel/Initializer/truncated_normal/stddev"
  attr {
    key: "T"
    value {
      type: DT_FLOAT
    }
  }
  attr {
    key: "_class"
    value {
      list {
        s: "loc:@bert/encoder/layer_0/attention/self/value/kernel"
      }
    }
  }
  attr {
    key: "_output_shapes"
    value {
      list {
        shape {
          dim {
            size: 256
          }
          dim {
            size: 256
          }
        }
      }
    }
  }
}
node {
  name: "bert/encoder/layer_0/attention/self/value/kernel/Initializer/truncated_normal"
  op: "Add"
  input: "bert/encoder/layer_0/attention/self/value/kernel/Initializer/truncated_normal/mul"
  input: "bert/encoder/layer_0/attention/self/value/kernel/Initializer/truncated_normal/mean"
  attr {
    key: "T"
    value {
      type: DT_FLOAT
    }
  }
  attr {
    key: "_class"
    value {
      list {
        s: "loc:@bert/encoder/layer_0/attention/self/value/kernel"
      }
    }
  }
  attr {
    key: "_output_shapes"
    value {
      list {
        shape {
          dim {
            size: 256
          }
          dim {
            size: 256
          }
        }
      }
    }
  }
}
node {
  name: "bert/encoder/layer_0/attention/self/value/kernel"
  op: "VariableV2"
  attr {
    key: "_class"
    value {
      list {
        s: "loc:@bert/encoder/layer_0/attention/self/value/kernel"
      }
    }
  }
  attr {
    key: "_output_shapes"
    value {
      list {
        shape {
          dim {
            size: 256
          }
          dim {
            size: 256
          }
        }
      }
    }
  }
  attr {
    key: "container"
    value {
      s: ""
    }
  }
  attr {
    key: "dtype"
    value {
      type: DT_FLOAT
    }
  }
  attr {
    key: "shape"
    value {
      shape {
        dim {
          size: 256
        }
        dim {
          size: 256
        }
      }
    }
  }
  attr {
    key: "shared_name"
    value {
      s: ""
    }
  }
}
node {
  name: "bert/encoder/layer_0/attention/self/value/kernel/Assign"
  op: "Assign"
  input: "bert/encoder/layer_0/attention/self/value/kernel"
  input: "bert/encoder/layer_0/attention/self/value/kernel/Initializer/truncated_normal"
  attr {
    key: "T"
    value {
      type: DT_FLOAT
    }
  }
  attr {
    key: "_class"
    value {
      list {
        s: "loc:@bert/encoder/layer_0/attention/self/value/kernel"
      }
    }
  }
  attr {
    key: "_output_shapes"
    value {
      list {
        shape {
          dim {
            size: 256
          }
          dim {
            size: 256
          }
        }
      }
    }
  }
  attr {
    key: "use_locking"
    value {
      b: true
    }
  }
  attr {
    key: "validate_shape"
    value {
      b: true
    }
  }
}
node {
  name: "bert/encoder/layer_0/attention/self/value/kernel/read"
  op: "Identity"
  input: "bert/encoder/layer_0/attention/self/value/kernel"
  attr {
    key: "T"
    value {
      type: DT_FLOAT
    }
  }
  attr {
    key: "_class"
    value {
      list {
        s: "loc:@bert/encoder/layer_0/attention/self/value/kernel"
      }
    }
  }
  attr {
    key: "_output_shapes"
    value {
      list {
        shape {
          dim {
            size: 256
          }
          dim {
            size: 256
          }
        }
      }
    }
  }
}
node {
  name: "bert/encoder/layer_0/attention/self/value/bias/Initializer/zeros"
  op: "Const"
  attr {
    key: "_class"
    value {
      list {
        s: "loc:@bert/encoder/layer_0/attention/self/value/bias"
      }
    }
  }
  attr {
    key: "_output_shapes"
    value {
      list {
        shape {
          dim {
            size: 256
          }
        }
      }
    }
  }
  attr {
    key: "dtype"
    value {
      type: DT_FLOAT
    }
  }
  attr {
    key: "value"
    value {
      tensor {
        dtype: DT_FLOAT
        tensor_shape {
          dim {
            size: 256
          }
        }
        float_val: 0.0
      }
    }
  }
}
node {
  name: "bert/encoder/layer_0/attention/self/value/bias"
  op: "VariableV2"
  attr {
    key: "_class"
    value {
      list {
        s: "loc:@bert/encoder/layer_0/attention/self/value/bias"
      }
    }
  }
  attr {
    key: "_output_shapes"
    value {
      list {
        shape {
          dim {
            size: 256
          }
        }
      }
    }
  }
  attr {
    key: "container"
    value {
      s: ""
    }
  }
  attr {
    key: "dtype"
    value {
      type: DT_FLOAT
    }
  }
  attr {
    key: "shape"
    value {
      shape {
        dim {
          size: 256
        }
      }
    }
  }
  attr {
    key: "shared_name"
    value {
      s: ""
    }
  }
}
node {
  name: "bert/encoder/layer_0/attention/self/value/bias/Assign"
  op: "Assign"
  input: "bert/encoder/layer_0/attention/self/value/bias"
  input: "bert/encoder/layer_0/attention/self/value/bias/Initializer/zeros"
  attr {
    key: "T"
    value {
      type: DT_FLOAT
    }
  }
  attr {
    key: "_class"
    value {
      list {
        s: "loc:@bert/encoder/layer_0/attention/self/value/bias"
      }
    }
  }
  attr {
    key: "_output_shapes"
    value {
      list {
        shape {
          dim {
            size: 256
          }
        }
      }
    }
  }
  attr {
    key: "use_locking"
    value {
      b: true
    }
  }
  attr {
    key: "validate_shape"
    value {
      b: true
    }
  }
}
node {
  name: "bert/encoder/layer_0/attention/self/value/bias/read"
  op: "Identity"
  input: "bert/encoder/layer_0/attention/self/value/bias"
  attr {
    key: "T"
    value {
      type: DT_FLOAT
    }
  }
  attr {
    key: "_class"
    value {
      list {
        s: "loc:@bert/encoder/layer_0/attention/self/value/bias"
      }
    }
  }
  attr {
    key: "_output_shapes"
    value {
      list {
        shape {
          dim {
            size: 256
          }
        }
      }
    }
  }
}
node {
  name: "bert/encoder/layer_0/attention/self/value/MatMul"
  op: "MatMul"
  input: "bert/encoder/Reshape_1"
  input: "bert/encoder/layer_0/attention/self/value/kernel/read"
  attr {
    key: "T"
    value {
      type: DT_FLOAT
    }
  }
  attr {
    key: "_output_shapes"
    value {
      list {
        shape {
          dim {
            size: 4096
          }
          dim {
            size: 256
          }
        }
      }
    }
  }
  attr {
    key: "transpose_a"
    value {
      b: false
    }
  }
  attr {
    key: "transpose_b"
    value {
      b: false
    }
  }
}
node {
  name: "bert/encoder/layer_0/attention/self/value/BiasAdd"
  op: "BiasAdd"
  input: "bert/encoder/layer_0/attention/self/value/MatMul"
  input: "bert/encoder/layer_0/attention/self/value/bias/read"
  attr {
    key: "T"
    value {
      type: DT_FLOAT
    }
  }
  attr {
    key: "_output_shapes"
    value {
      list {
        shape {
          dim {
            size: 4096
          }
          dim {
            size: 256
          }
        }
      }
    }
  }
  attr {
    key: "data_format"
    value {
      s: "NHWC"
    }
  }
}
node {
  name: "bert/encoder/layer_0/attention/self/Reshape/shape"
  op: "Const"
  attr {
    key: "_output_shapes"
    value {
      list {
        shape {
          dim {
            size: 4
          }
        }
      }
    }
  }
  attr {
    key: "dtype"
    value {
      type: DT_INT32
    }
  }
  attr {
    key: "value"
    value {
      tensor {
        dtype: DT_INT32
        tensor_shape {
          dim {
            size: 4
          }
        }
        tensor_content: " \000\000\000\200\000\000\000\004\000\000\000@\000\000\000"
      }
    }
  }
}
node {
  name: "bert/encoder/layer_0/attention/self/Reshape"
  op: "Reshape"
  input: "bert/encoder/layer_0/attention/self/query/BiasAdd"
  input: "bert/encoder/layer_0/attention/self/Reshape/shape"
  attr {
    key: "T"
    value {
      type: DT_FLOAT
    }
  }
  attr {
    key: "Tshape"
    value {
      type: DT_INT32
    }
  }
  attr {
    key: "_output_shapes"
    value {
      list {
        shape {
          dim {
            size: 32
          }
          dim {
            size: 128
          }
          dim {
            size: 4
          }
          dim {
            size: 64
          }
        }
      }
    }
  }
}
node {
  name: "bert/encoder/layer_0/attention/self/transpose/perm"
  op: "Const"
  attr {
    key: "_output_shapes"
    value {
      list {
        shape {
          dim {
            size: 4
          }
        }
      }
    }
  }
  attr {
    key: "dtype"
    value {
      type: DT_INT32
    }
  }
  attr {
    key: "value"
    value {
      tensor {
        dtype: DT_INT32
        tensor_shape {
          dim {
            size: 4
          }
        }
        tensor_content: "\000\000\000\000\002\000\000\000\001\000\000\000\003\000\000\000"
      }
    }
  }
}
node {
  name: "bert/encoder/layer_0/attention/self/transpose"
  op: "Transpose"
  input: "bert/encoder/layer_0/attention/self/Reshape"
  input: "bert/encoder/layer_0/attention/self/transpose/perm"
  attr {
    key: "T"
    value {
      type: DT_FLOAT
    }
  }
  attr {
    key: "Tperm"
    value {
      type: DT_INT32
    }
  }
  attr {
    key: "_output_shapes"
    value {
      list {
        shape {
          dim {
            size: 32
          }
          dim {
            size: 4
          }
          dim {
            size: 128
          }
          dim {
            size: 64
          }
        }
      }
    }
  }
}
node {
  name: "bert/encoder/layer_0/attention/self/Reshape_1/shape"
  op: "Const"
  attr {
    key: "_output_shapes"
    value {
      list {
        shape {
          dim {
            size: 4
          }
        }
      }
    }
  }
  attr {
    key: "dtype"
    value {
      type: DT_INT32
    }
  }
  attr {
    key: "value"
    value {
      tensor {
        dtype: DT_INT32
        tensor_shape {
          dim {
            size: 4
          }
        }
        tensor_content: " \000\000\000\200\000\000\000\004\000\000\000@\000\000\000"
      }
    }
  }
}
node {
  name: "bert/encoder/layer_0/attention/self/Reshape_1"
  op: "Reshape"
  input: "bert/encoder/layer_0/attention/self/key/BiasAdd"
  input: "bert/encoder/layer_0/attention/self/Reshape_1/shape"
  attr {
    key: "T"
    value {
      type: DT_FLOAT
    }
  }
  attr {
    key: "Tshape"
    value {
      type: DT_INT32
    }
  }
  attr {
    key: "_output_shapes"
    value {
      list {
        shape {
          dim {
            size: 32
          }
          dim {
            size: 128
          }
          dim {
            size: 4
          }
          dim {
            size: 64
          }
        }
      }
    }
  }
}
node {
  name: "bert/encoder/layer_0/attention/self/transpose_1/perm"
  op: "Const"
  attr {
    key: "_output_shapes"
    value {
      list {
        shape {
          dim {
            size: 4
          }
        }
      }
    }
  }
  attr {
    key: "dtype"
    value {
      type: DT_INT32
    }
  }
  attr {
    key: "value"
    value {
      tensor {
        dtype: DT_INT32
        tensor_shape {
          dim {
            size: 4
          }
        }
        tensor_content: "\000\000\000\000\002\000\000\000\001\000\000\000\003\000\000\000"
      }
    }
  }
}
node {
  name: "bert/encoder/layer_0/attention/self/transpose_1"
  op: "Transpose"
  input: "bert/encoder/layer_0/attention/self/Reshape_1"
  input: "bert/encoder/layer_0/attention/self/transpose_1/perm"
  attr {
    key: "T"
    value {
      type: DT_FLOAT
    }
  }
  attr {
    key: "Tperm"
    value {
      type: DT_INT32
    }
  }
  attr {
    key: "_output_shapes"
    value {
      list {
        shape {
          dim {
            size: 32
          }
          dim {
            size: 4
          }
          dim {
            size: 128
          }
          dim {
            size: 64
          }
        }
      }
    }
  }
}
node {
  name: "bert/encoder/layer_0/attention/self/MatMul"
  op: "BatchMatMul"
  input: "bert/encoder/layer_0/attention/self/transpose"
  input: "bert/encoder/layer_0/attention/self/transpose_1"
  attr {
    key: "T"
    value {
      type: DT_FLOAT
    }
  }
  attr {
    key: "_output_shapes"
    value {
      list {
        shape {
          dim {
            size: 32
          }
          dim {
            size: 4
          }
          dim {
            size: 128
          }
          dim {
            size: 128
          }
        }
      }
    }
  }
  attr {
    key: "adj_x"
    value {
      b: false
    }
  }
  attr {
    key: "adj_y"
    value {
      b: true
    }
  }
}
node {
  name: "bert/encoder/layer_0/attention/self/Mul/y"
  op: "Const"
  attr {
    key: "_output_shapes"
    value {
      list {
        shape {
        }
      }
    }
  }
  attr {
    key: "dtype"
    value {
      type: DT_FLOAT
    }
  }
  attr {
    key: "value"
    value {
      tensor {
        dtype: DT_FLOAT
        tensor_shape {
        }
        float_val: 0.125
      }
    }
  }
}
node {
  name: "bert/encoder/layer_0/attention/self/Mul"
  op: "Mul"
  input: "bert/encoder/layer_0/attention/self/MatMul"
  input: "bert/encoder/layer_0/attention/self/Mul/y"
  attr {
    key: "T"
    value {
      type: DT_FLOAT
    }
  }
  attr {
    key: "_output_shapes"
    value {
      list {
        shape {
          dim {
            size: 32
          }
          dim {
            size: 4
          }
          dim {
            size: 128
          }
          dim {
            size: 128
          }
        }
      }
    }
  }
}
node {
  name: "bert/encoder/layer_0/attention/self/ExpandDims/dim"
  op: "Const"
  attr {
    key: "_output_shapes"
    value {
      list {
        shape {
          dim {
            size: 1
          }
        }
      }
    }
  }
  attr {
    key: "dtype"
    value {
      type: DT_INT32
    }
  }
  attr {
    key: "value"
    value {
      tensor {
        dtype: DT_INT32
        tensor_shape {
          dim {
            size: 1
          }
        }
        int_val: 1
      }
    }
  }
}
node {
  name: "bert/encoder/layer_0/attention/self/ExpandDims"
  op: "ExpandDims"
  input: "bert/encoder/mul"
  input: "bert/encoder/layer_0/attention/self/ExpandDims/dim"
  attr {
    key: "T"
    value {
      type: DT_FLOAT
    }
  }
  attr {
    key: "Tdim"
    value {
      type: DT_INT32
    }
  }
  attr {
    key: "_output_shapes"
    value {
      list {
        shape {
          dim {
            size: 32
          }
          dim {
            size: 1
          }
          dim {
            size: 128
          }
          dim {
            size: 128
          }
        }
      }
    }
  }
}
node {
  name: "bert/encoder/layer_0/attention/self/sub/x"
  op: "Const"
  attr {
    key: "_output_shapes"
    value {
      list {
        shape {
        }
      }
    }
  }
  attr {
    key: "dtype"
    value {
      type: DT_FLOAT
    }
  }
  attr {
    key: "value"
    value {
      tensor {
        dtype: DT_FLOAT
        tensor_shape {
        }
        float_val: 1.0
      }
    }
  }
}
node {
  name: "bert/encoder/layer_0/attention/self/sub"
  op: "Sub"
  input: "bert/encoder/layer_0/attention/self/sub/x"
  input: "bert/encoder/layer_0/attention/self/ExpandDims"
  attr {
    key: "T"
    value {
      type: DT_FLOAT
    }
  }
  attr {
    key: "_output_shapes"
    value {
      list {
        shape {
          dim {
            size: 32
          }
          dim {
            size: 1
          }
          dim {
            size: 128
          }
          dim {
            size: 128
          }
        }
      }
    }
  }
}
node {
  name: "bert/encoder/layer_0/attention/self/mul_1/y"
  op: "Const"
  attr {
    key: "_output_shapes"
    value {
      list {
        shape {
        }
      }
    }
  }
  attr {
    key: "dtype"
    value {
      type: DT_FLOAT
    }
  }
  attr {
    key: "value"
    value {
      tensor {
        dtype: DT_FLOAT
        tensor_shape {
        }
        float_val: -10000.0
      }
    }
  }
}
node {
  name: "bert/encoder/layer_0/attention/self/mul_1"
  op: "Mul"
  input: "bert/encoder/layer_0/attention/self/sub"
  input: "bert/encoder/layer_0/attention/self/mul_1/y"
  attr {
    key: "T"
    value {
      type: DT_FLOAT
    }
  }
  attr {
    key: "_output_shapes"
    value {
      list {
        shape {
          dim {
            size: 32
          }
          dim {
            size: 1
          }
          dim {
            size: 128
          }
          dim {
            size: 128
          }
        }
      }
    }
  }
}
node {
  name: "bert/encoder/layer_0/attention/self/add"
  op: "Add"
  input: "bert/encoder/layer_0/attention/self/Mul"
  input: "bert/encoder/layer_0/attention/self/mul_1"
  attr {
    key: "T"
    value {
      type: DT_FLOAT
    }
  }
  attr {
    key: "_output_shapes"
    value {
      list {
        shape {
          dim {
            size: 32
          }
          dim {
            size: 4
          }
          dim {
            size: 128
          }
          dim {
            size: 128
          }
        }
      }
    }
  }
}
node {
  name: "bert/encoder/layer_0/attention/self/Softmax"
  op: "Softmax"
  input: "bert/encoder/layer_0/attention/self/add"
  attr {
    key: "T"
    value {
      type: DT_FLOAT
    }
  }
  attr {
    key: "_output_shapes"
    value {
      list {
        shape {
          dim {
            size: 32
          }
          dim {
            size: 4
          }
          dim {
            size: 128
          }
          dim {
            size: 128
          }
        }
      }
    }
  }
}
node {
  name: "bert/encoder/layer_0/attention/self/dropout/keep_prob"
  op: "Const"
  attr {
    key: "_output_shapes"
    value {
      list {
        shape {
        }
      }
    }
  }
  attr {
    key: "dtype"
    value {
      type: DT_FLOAT
    }
  }
  attr {
    key: "value"
    value {
      tensor {
        dtype: DT_FLOAT
        tensor_shape {
        }
        float_val: 0.89999998
      }
    }
  }
}
node {
  name: "bert/encoder/layer_0/attention/self/dropout/Shape"
  op: "Const"
  attr {
    key: "_output_shapes"
    value {
      list {
        shape {
          dim {
            size: 4
          }
        }
      }
    }
  }
  attr {
    key: "dtype"
    value {
      type: DT_INT32
    }
  }
  attr {
    key: "value"
    value {
      tensor {
        dtype: DT_INT32
        tensor_shape {
          dim {
            size: 4
          }
        }
        tensor_content: " \000\000\000\004\000\000\000\200\000\000\000\200\000\000\000"
      }
    }
  }
}
node {
  name: "bert/encoder/layer_0/attention/self/dropout/random_uniform/min"
  op: "Const"
  attr {
    key: "_output_shapes"
    value {
      list {
        shape {
        }
      }
    }
  }
  attr {
    key: "dtype"
    value {
      type: DT_FLOAT
    }
  }
  attr {
    key: "value"
    value {
      tensor {
        dtype: DT_FLOAT
        tensor_shape {
        }
        float_val: 0.0
      }
    }
  }
}
node {
  name: "bert/encoder/layer_0/attention/self/dropout/random_uniform/max"
  op: "Const"
  attr {
    key: "_output_shapes"
    value {
      list {
        shape {
        }
      }
    }
  }
  attr {
    key: "dtype"
    value {
      type: DT_FLOAT
    }
  }
  attr {
    key: "value"
    value {
      tensor {
        dtype: DT_FLOAT
        tensor_shape {
        }
        float_val: 1.0
      }
    }
  }
}
node {
  name: "bert/encoder/layer_0/attention/self/dropout/random_uniform/RandomUniform"
  op: "RandomUniform"
  input: "bert/encoder/layer_0/attention/self/dropout/Shape"
  attr {
    key: "T"
    value {
      type: DT_INT32
    }
  }
  attr {
    key: "_output_shapes"
    value {
      list {
        shape {
          dim {
            size: 32
          }
          dim {
            size: 4
          }
          dim {
            size: 128
          }
          dim {
            size: 128
          }
        }
      }
    }
  }
  attr {
    key: "dtype"
    value {
      type: DT_FLOAT
    }
  }
  attr {
    key: "seed"
    value {
      i: 0
    }
  }
  attr {
    key: "seed2"
    value {
      i: 0
    }
  }
}
node {
  name: "bert/encoder/layer_0/attention/self/dropout/random_uniform/sub"
  op: "Sub"
  input: "bert/encoder/layer_0/attention/self/dropout/random_uniform/max"
  input: "bert/encoder/layer_0/attention/self/dropout/random_uniform/min"
  attr {
    key: "T"
    value {
      type: DT_FLOAT
    }
  }
  attr {
    key: "_output_shapes"
    value {
      list {
        shape {
        }
      }
    }
  }
}
node {
  name: "bert/encoder/layer_0/attention/self/dropout/random_uniform/mul"
  op: "Mul"
  input: "bert/encoder/layer_0/attention/self/dropout/random_uniform/RandomUniform"
  input: "bert/encoder/layer_0/attention/self/dropout/random_uniform/sub"
  attr {
    key: "T"
    value {
      type: DT_FLOAT
    }
  }
  attr {
    key: "_output_shapes"
    value {
      list {
        shape {
          dim {
            size: 32
          }
          dim {
            size: 4
          }
          dim {
            size: 128
          }
          dim {
            size: 128
          }
        }
      }
    }
  }
}
node {
  name: "bert/encoder/layer_0/attention/self/dropout/random_uniform"
  op: "Add"
  input: "bert/encoder/layer_0/attention/self/dropout/random_uniform/mul"
  input: "bert/encoder/layer_0/attention/self/dropout/random_uniform/min"
  attr {
    key: "T"
    value {
      type: DT_FLOAT
    }
  }
  attr {
    key: "_output_shapes"
    value {
      list {
        shape {
          dim {
            size: 32
          }
          dim {
            size: 4
          }
          dim {
            size: 128
          }
          dim {
            size: 128
          }
        }
      }
    }
  }
}
node {
  name: "bert/encoder/layer_0/attention/self/dropout/add"
  op: "Add"
  input: "bert/encoder/layer_0/attention/self/dropout/keep_prob"
  input: "bert/encoder/layer_0/attention/self/dropout/random_uniform"
  attr {
    key: "T"
    value {
      type: DT_FLOAT
    }
  }
  attr {
    key: "_output_shapes"
    value {
      list {
        shape {
          dim {
            size: 32
          }
          dim {
            size: 4
          }
          dim {
            size: 128
          }
          dim {
            size: 128
          }
        }
      }
    }
  }
}
node {
  name: "bert/encoder/layer_0/attention/self/dropout/Floor"
  op: "Floor"
  input: "bert/encoder/layer_0/attention/self/dropout/add"
  attr {
    key: "T"
    value {
      type: DT_FLOAT
    }
  }
  attr {
    key: "_output_shapes"
    value {
      list {
        shape {
          dim {
            size: 32
          }
          dim {
            size: 4
          }
          dim {
            size: 128
          }
          dim {
            size: 128
          }
        }
      }
    }
  }
}
node {
  name: "bert/encoder/layer_0/attention/self/dropout/div"
  op: "RealDiv"
  input: "bert/encoder/layer_0/attention/self/Softmax"
  input: "bert/encoder/layer_0/attention/self/dropout/keep_prob"
  attr {
    key: "T"
    value {
      type: DT_FLOAT
    }
  }
  attr {
    key: "_output_shapes"
    value {
      list {
        shape {
          dim {
            size: 32
          }
          dim {
            size: 4
          }
          dim {
            size: 128
          }
          dim {
            size: 128
          }
        }
      }
    }
  }
}
node {
  name: "bert/encoder/layer_0/attention/self/dropout/mul"
  op: "Mul"
  input: "bert/encoder/layer_0/attention/self/dropout/div"
  input: "bert/encoder/layer_0/attention/self/dropout/Floor"
  attr {
    key: "T"
    value {
      type: DT_FLOAT
    }
  }
  attr {
    key: "_output_shapes"
    value {
      list {
        shape {
          dim {
            size: 32
          }
          dim {
            size: 4
          }
          dim {
            size: 128
          }
          dim {
            size: 128
          }
        }
      }
    }
  }
}
node {
  name: "bert/encoder/layer_0/attention/self/Reshape_2/shape"
  op: "Const"
  attr {
    key: "_output_shapes"
    value {
      list {
        shape {
          dim {
            size: 4
          }
        }
      }
    }
  }
  attr {
    key: "dtype"
    value {
      type: DT_INT32
    }
  }
  attr {
    key: "value"
    value {
      tensor {
        dtype: DT_INT32
        tensor_shape {
          dim {
            size: 4
          }
        }
        tensor_content: " \000\000\000\200\000\000\000\004\000\000\000@\000\000\000"
      }
    }
  }
}
node {
  name: "bert/encoder/layer_0/attention/self/Reshape_2"
  op: "Reshape"
  input: "bert/encoder/layer_0/attention/self/value/BiasAdd"
  input: "bert/encoder/layer_0/attention/self/Reshape_2/shape"
  attr {
    key: "T"
    value {
      type: DT_FLOAT
    }
  }
  attr {
    key: "Tshape"
    value {
      type: DT_INT32
    }
  }
  attr {
    key: "_output_shapes"
    value {
      list {
        shape {
          dim {
            size: 32
          }
          dim {
            size: 128
          }
          dim {
            size: 4
          }
          dim {
            size: 64
          }
        }
      }
    }
  }
}
node {
  name: "bert/encoder/layer_0/attention/self/transpose_2/perm"
  op: "Const"
  attr {
    key: "_output_shapes"
    value {
      list {
        shape {
          dim {
            size: 4
          }
        }
      }
    }
  }
  attr {
    key: "dtype"
    value {
      type: DT_INT32
    }
  }
  attr {
    key: "value"
    value {
      tensor {
        dtype: DT_INT32
        tensor_shape {
          dim {
            size: 4
          }
        }
        tensor_content: "\000\000\000\000\002\000\000\000\001\000\000\000\003\000\000\000"
      }
    }
  }
}
node {
  name: "bert/encoder/layer_0/attention/self/transpose_2"
  op: "Transpose"
  input: "bert/encoder/layer_0/attention/self/Reshape_2"
  input: "bert/encoder/layer_0/attention/self/transpose_2/perm"
  attr {
    key: "T"
    value {
      type: DT_FLOAT
    }
  }
  attr {
    key: "Tperm"
    value {
      type: DT_INT32
    }
  }
  attr {
    key: "_output_shapes"
    value {
      list {
        shape {
          dim {
            size: 32
          }
          dim {
            size: 4
          }
          dim {
            size: 128
          }
          dim {
            size: 64
          }
        }
      }
    }
  }
}
node {
  name: "bert/encoder/layer_0/attention/self/MatMul_1"
  op: "BatchMatMul"
  input: "bert/encoder/layer_0/attention/self/dropout/mul"
  input: "bert/encoder/layer_0/attention/self/transpose_2"
  attr {
    key: "T"
    value {
      type: DT_FLOAT
    }
  }
  attr {
    key: "_output_shapes"
    value {
      list {
        shape {
          dim {
            size: 32
          }
          dim {
            size: 4
          }
          dim {
            size: 128
          }
          dim {
            size: 64
          }
        }
      }
    }
  }
  attr {
    key: "adj_x"
    value {
      b: false
    }
  }
  attr {
    key: "adj_y"
    value {
      b: false
    }
  }
}
node {
  name: "bert/encoder/layer_0/attention/self/transpose_3/perm"
  op: "Const"
  attr {
    key: "_output_shapes"
    value {
      list {
        shape {
          dim {
            size: 4
          }
        }
      }
    }
  }
  attr {
    key: "dtype"
    value {
      type: DT_INT32
    }
  }
  attr {
    key: "value"
    value {
      tensor {
        dtype: DT_INT32
        tensor_shape {
          dim {
            size: 4
          }
        }
        tensor_content: "\000\000\000\000\002\000\000\000\001\000\000\000\003\000\000\000"
      }
    }
  }
}
node {
  name: "bert/encoder/layer_0/attention/self/transpose_3"
  op: "Transpose"
  input: "bert/encoder/layer_0/attention/self/MatMul_1"
  input: "bert/encoder/layer_0/attention/self/transpose_3/perm"
  attr {
    key: "T"
    value {
      type: DT_FLOAT
    }
  }
  attr {
    key: "Tperm"
    value {
      type: DT_INT32
    }
  }
  attr {
    key: "_output_shapes"
    value {
      list {
        shape {
          dim {
            size: 32
          }
          dim {
            size: 128
          }
          dim {
            size: 4
          }
          dim {
            size: 64
          }
        }
      }
    }
  }
}
node {
  name: "bert/encoder/layer_0/attention/self/Reshape_3/shape"
  op: "Const"
  attr {
    key: "_output_shapes"
    value {
      list {
        shape {
          dim {
            size: 2
          }
        }
      }
    }
  }
  attr {
    key: "dtype"
    value {
      type: DT_INT32
    }
  }
  attr {
    key: "value"
    value {
      tensor {
        dtype: DT_INT32
        tensor_shape {
          dim {
            size: 2
          }
        }
        tensor_content: "\000\020\000\000\000\001\000\000"
      }
    }
  }
}
node {
  name: "bert/encoder/layer_0/attention/self/Reshape_3"
  op: "Reshape"
  input: "bert/encoder/layer_0/attention/self/transpose_3"
  input: "bert/encoder/layer_0/attention/self/Reshape_3/shape"
  attr {
    key: "T"
    value {
      type: DT_FLOAT
    }
  }
  attr {
    key: "Tshape"
    value {
      type: DT_INT32
    }
  }
  attr {
    key: "_output_shapes"
    value {
      list {
        shape {
          dim {
            size: 4096
          }
          dim {
            size: 256
          }
        }
      }
    }
  }
}
node {
  name: "bert/encoder/layer_0/attention/output/dense/kernel/Initializer/truncated_normal/shape"
  op: "Const"
  attr {
    key: "_class"
    value {
      list {
        s: "loc:@bert/encoder/layer_0/attention/output/dense/kernel"
      }
    }
  }
  attr {
    key: "_output_shapes"
    value {
      list {
        shape {
          dim {
            size: 2
          }
        }
      }
    }
  }
  attr {
    key: "dtype"
    value {
      type: DT_INT32
    }
  }
  attr {
    key: "value"
    value {
      tensor {
        dtype: DT_INT32
        tensor_shape {
          dim {
            size: 2
          }
        }
        tensor_content: "\000\001\000\000\000\001\000\000"
      }
    }
  }
}
node {
  name: "bert/encoder/layer_0/attention/output/dense/kernel/Initializer/truncated_normal/mean"
  op: "Const"
  attr {
    key: "_class"
    value {
      list {
        s: "loc:@bert/encoder/layer_0/attention/output/dense/kernel"
      }
    }
  }
  attr {
    key: "_output_shapes"
    value {
      list {
        shape {
        }
      }
    }
  }
  attr {
    key: "dtype"
    value {
      type: DT_FLOAT
    }
  }
  attr {
    key: "value"
    value {
      tensor {
        dtype: DT_FLOAT
        tensor_shape {
        }
        float_val: 0.0
      }
    }
  }
}
node {
  name: "bert/encoder/layer_0/attention/output/dense/kernel/Initializer/truncated_normal/stddev"
  op: "Const"
  attr {
    key: "_class"
    value {
      list {
        s: "loc:@bert/encoder/layer_0/attention/output/dense/kernel"
      }
    }
  }
  attr {
    key: "_output_shapes"
    value {
      list {
        shape {
        }
      }
    }
  }
  attr {
    key: "dtype"
    value {
      type: DT_FLOAT
    }
  }
  attr {
    key: "value"
    value {
      tensor {
        dtype: DT_FLOAT
        tensor_shape {
        }
        float_val: 0.02
      }
    }
  }
}
node {
  name: "bert/encoder/layer_0/attention/output/dense/kernel/Initializer/truncated_normal/TruncatedNormal"
  op: "TruncatedNormal"
  input: "bert/encoder/layer_0/attention/output/dense/kernel/Initializer/truncated_normal/shape"
  attr {
    key: "T"
    value {
      type: DT_INT32
    }
  }
  attr {
    key: "_class"
    value {
      list {
        s: "loc:@bert/encoder/layer_0/attention/output/dense/kernel"
      }
    }
  }
  attr {
    key: "_output_shapes"
    value {
      list {
        shape {
          dim {
            size: 256
          }
          dim {
            size: 256
          }
        }
      }
    }
  }
  attr {
    key: "dtype"
    value {
      type: DT_FLOAT
    }
  }
  attr {
    key: "seed"
    value {
      i: 0
    }
  }
  attr {
    key: "seed2"
    value {
      i: 0
    }
  }
}
node {
  name: "bert/encoder/layer_0/attention/output/dense/kernel/Initializer/truncated_normal/mul"
  op: "Mul"
  input: "bert/encoder/layer_0/attention/output/dense/kernel/Initializer/truncated_normal/TruncatedNormal"
  input: "bert/encoder/layer_0/attention/output/dense/kernel/Initializer/truncated_normal/stddev"
  attr {
    key: "T"
    value {
      type: DT_FLOAT
    }
  }
  attr {
    key: "_class"
    value {
      list {
        s: "loc:@bert/encoder/layer_0/attention/output/dense/kernel"
      }
    }
  }
  attr {
    key: "_output_shapes"
    value {
      list {
        shape {
          dim {
            size: 256
          }
          dim {
            size: 256
          }
        }
      }
    }
  }
}
node {
  name: "bert/encoder/layer_0/attention/output/dense/kernel/Initializer/truncated_normal"
  op: "Add"
  input: "bert/encoder/layer_0/attention/output/dense/kernel/Initializer/truncated_normal/mul"
  input: "bert/encoder/layer_0/attention/output/dense/kernel/Initializer/truncated_normal/mean"
  attr {
    key: "T"
    value {
      type: DT_FLOAT
    }
  }
  attr {
    key: "_class"
    value {
      list {
        s: "loc:@bert/encoder/layer_0/attention/output/dense/kernel"
      }
    }
  }
  attr {
    key: "_output_shapes"
    value {
      list {
        shape {
          dim {
            size: 256
          }
          dim {
            size: 256
          }
        }
      }
    }
  }
}
node {
  name: "bert/encoder/layer_0/attention/output/dense/kernel"
  op: "VariableV2"
  attr {
    key: "_class"
    value {
      list {
        s: "loc:@bert/encoder/layer_0/attention/output/dense/kernel"
      }
    }
  }
  attr {
    key: "_output_shapes"
    value {
      list {
        shape {
          dim {
            size: 256
          }
          dim {
            size: 256
          }
        }
      }
    }
  }
  attr {
    key: "container"
    value {
      s: ""
    }
  }
  attr {
    key: "dtype"
    value {
      type: DT_FLOAT
    }
  }
  attr {
    key: "shape"
    value {
      shape {
        dim {
          size: 256
        }
        dim {
          size: 256
        }
      }
    }
  }
  attr {
    key: "shared_name"
    value {
      s: ""
    }
  }
}
node {
  name: "bert/encoder/layer_0/attention/output/dense/kernel/Assign"
  op: "Assign"
  input: "bert/encoder/layer_0/attention/output/dense/kernel"
  input: "bert/encoder/layer_0/attention/output/dense/kernel/Initializer/truncated_normal"
  attr {
    key: "T"
    value {
      type: DT_FLOAT
    }
  }
  attr {
    key: "_class"
    value {
      list {
        s: "loc:@bert/encoder/layer_0/attention/output/dense/kernel"
      }
    }
  }
  attr {
    key: "_output_shapes"
    value {
      list {
        shape {
          dim {
            size: 256
          }
          dim {
            size: 256
          }
        }
      }
    }
  }
  attr {
    key: "use_locking"
    value {
      b: true
    }
  }
  attr {
    key: "validate_shape"
    value {
      b: true
    }
  }
}
node {
  name: "bert/encoder/layer_0/attention/output/dense/kernel/read"
  op: "Identity"
  input: "bert/encoder/layer_0/attention/output/dense/kernel"
  attr {
    key: "T"
    value {
      type: DT_FLOAT
    }
  }
  attr {
    key: "_class"
    value {
      list {
        s: "loc:@bert/encoder/layer_0/attention/output/dense/kernel"
      }
    }
  }
  attr {
    key: "_output_shapes"
    value {
      list {
        shape {
          dim {
            size: 256
          }
          dim {
            size: 256
          }
        }
      }
    }
  }
}
node {
  name: "bert/encoder/layer_0/attention/output/dense/bias/Initializer/zeros"
  op: "Const"
  attr {
    key: "_class"
    value {
      list {
        s: "loc:@bert/encoder/layer_0/attention/output/dense/bias"
      }
    }
  }
  attr {
    key: "_output_shapes"
    value {
      list {
        shape {
          dim {
            size: 256
          }
        }
      }
    }
  }
  attr {
    key: "dtype"
    value {
      type: DT_FLOAT
    }
  }
  attr {
    key: "value"
    value {
      tensor {
        dtype: DT_FLOAT
        tensor_shape {
          dim {
            size: 256
          }
        }
        float_val: 0.0
      }
    }
  }
}
node {
  name: "bert/encoder/layer_0/attention/output/dense/bias"
  op: "VariableV2"
  attr {
    key: "_class"
    value {
      list {
        s: "loc:@bert/encoder/layer_0/attention/output/dense/bias"
      }
    }
  }
  attr {
    key: "_output_shapes"
    value {
      list {
        shape {
          dim {
            size: 256
          }
        }
      }
    }
  }
  attr {
    key: "container"
    value {
      s: ""
    }
  }
  attr {
    key: "dtype"
    value {
      type: DT_FLOAT
    }
  }
  attr {
    key: "shape"
    value {
      shape {
        dim {
          size: 256
        }
      }
    }
  }
  attr {
    key: "shared_name"
    value {
      s: ""
    }
  }
}
node {
  name: "bert/encoder/layer_0/attention/output/dense/bias/Assign"
  op: "Assign"
  input: "bert/encoder/layer_0/attention/output/dense/bias"
  input: "bert/encoder/layer_0/attention/output/dense/bias/Initializer/zeros"
  attr {
    key: "T"
    value {
      type: DT_FLOAT
    }
  }
  attr {
    key: "_class"
    value {
      list {
        s: "loc:@bert/encoder/layer_0/attention/output/dense/bias"
      }
    }
  }
  attr {
    key: "_output_shapes"
    value {
      list {
        shape {
          dim {
            size: 256
          }
        }
      }
    }
  }
  attr {
    key: "use_locking"
    value {
      b: true
    }
  }
  attr {
    key: "validate_shape"
    value {
      b: true
    }
  }
}
node {
  name: "bert/encoder/layer_0/attention/output/dense/bias/read"
  op: "Identity"
  input: "bert/encoder/layer_0/attention/output/dense/bias"
  attr {
    key: "T"
    value {
      type: DT_FLOAT
    }
  }
  attr {
    key: "_class"
    value {
      list {
        s: "loc:@bert/encoder/layer_0/attention/output/dense/bias"
      }
    }
  }
  attr {
    key: "_output_shapes"
    value {
      list {
        shape {
          dim {
            size: 256
          }
        }
      }
    }
  }
}
node {
  name: "bert/encoder/layer_0/attention/output/dense/MatMul"
  op: "MatMul"
  input: "bert/encoder/layer_0/attention/self/Reshape_3"
  input: "bert/encoder/layer_0/attention/output/dense/kernel/read"
  attr {
    key: "T"
    value {
      type: DT_FLOAT
    }
  }
  attr {
    key: "_output_shapes"
    value {
      list {
        shape {
          dim {
            size: 4096
          }
          dim {
            size: 256
          }
        }
      }
    }
  }
  attr {
    key: "transpose_a"
    value {
      b: false
    }
  }
  attr {
    key: "transpose_b"
    value {
      b: false
    }
  }
}
node {
  name: "bert/encoder/layer_0/attention/output/dense/BiasAdd"
  op: "BiasAdd"
  input: "bert/encoder/layer_0/attention/output/dense/MatMul"
  input: "bert/encoder/layer_0/attention/output/dense/bias/read"
  attr {
    key: "T"
    value {
      type: DT_FLOAT
    }
  }
  attr {
    key: "_output_shapes"
    value {
      list {
        shape {
          dim {
            size: 4096
          }
          dim {
            size: 256
          }
        }
      }
    }
  }
  attr {
    key: "data_format"
    value {
      s: "NHWC"
    }
  }
}
node {
  name: "bert/encoder/layer_0/attention/output/dropout/keep_prob"
  op: "Const"
  attr {
    key: "_output_shapes"
    value {
      list {
        shape {
        }
      }
    }
  }
  attr {
    key: "dtype"
    value {
      type: DT_FLOAT
    }
  }
  attr {
    key: "value"
    value {
      tensor {
        dtype: DT_FLOAT
        tensor_shape {
        }
        float_val: 0.89999998
      }
    }
  }
}
node {
  name: "bert/encoder/layer_0/attention/output/dropout/Shape"
  op: "Const"
  attr {
    key: "_output_shapes"
    value {
      list {
        shape {
          dim {
            size: 2
          }
        }
      }
    }
  }
  attr {
    key: "dtype"
    value {
      type: DT_INT32
    }
  }
  attr {
    key: "value"
    value {
      tensor {
        dtype: DT_INT32
        tensor_shape {
          dim {
            size: 2
          }
        }
        tensor_content: "\000\020\000\000\000\001\000\000"
      }
    }
  }
}
node {
  name: "bert/encoder/layer_0/attention/output/dropout/random_uniform/min"
  op: "Const"
  attr {
    key: "_output_shapes"
    value {
      list {
        shape {
        }
      }
    }
  }
  attr {
    key: "dtype"
    value {
      type: DT_FLOAT
    }
  }
  attr {
    key: "value"
    value {
      tensor {
        dtype: DT_FLOAT
        tensor_shape {
        }
        float_val: 0.0
      }
    }
  }
}
node {
  name: "bert/encoder/layer_0/attention/output/dropout/random_uniform/max"
  op: "Const"
  attr {
    key: "_output_shapes"
    value {
      list {
        shape {
        }
      }
    }
  }
  attr {
    key: "dtype"
    value {
      type: DT_FLOAT
    }
  }
  attr {
    key: "value"
    value {
      tensor {
        dtype: DT_FLOAT
        tensor_shape {
        }
        float_val: 1.0
      }
    }
  }
}
node {
  name: "bert/encoder/layer_0/attention/output/dropout/random_uniform/RandomUniform"
  op: "RandomUniform"
  input: "bert/encoder/layer_0/attention/output/dropout/Shape"
  attr {
    key: "T"
    value {
      type: DT_INT32
    }
  }
  attr {
    key: "_output_shapes"
    value {
      list {
        shape {
          dim {
            size: 4096
          }
          dim {
            size: 256
          }
        }
      }
    }
  }
  attr {
    key: "dtype"
    value {
      type: DT_FLOAT
    }
  }
  attr {
    key: "seed"
    value {
      i: 0
    }
  }
  attr {
    key: "seed2"
    value {
      i: 0
    }
  }
}
node {
  name: "bert/encoder/layer_0/attention/output/dropout/random_uniform/sub"
  op: "Sub"
  input: "bert/encoder/layer_0/attention/output/dropout/random_uniform/max"
  input: "bert/encoder/layer_0/attention/output/dropout/random_uniform/min"
  attr {
    key: "T"
    value {
      type: DT_FLOAT
    }
  }
  attr {
    key: "_output_shapes"
    value {
      list {
        shape {
        }
      }
    }
  }
}
node {
  name: "bert/encoder/layer_0/attention/output/dropout/random_uniform/mul"
  op: "Mul"
  input: "bert/encoder/layer_0/attention/output/dropout/random_uniform/RandomUniform"
  input: "bert/encoder/layer_0/attention/output/dropout/random_uniform/sub"
  attr {
    key: "T"
    value {
      type: DT_FLOAT
    }
  }
  attr {
    key: "_output_shapes"
    value {
      list {
        shape {
          dim {
            size: 4096
          }
          dim {
            size: 256
          }
        }
      }
    }
  }
}
node {
  name: "bert/encoder/layer_0/attention/output/dropout/random_uniform"
  op: "Add"
  input: "bert/encoder/layer_0/attention/output/dropout/random_uniform/mul"
  input: "bert/encoder/layer_0/attention/output/dropout/random_uniform/min"
  attr {
    key: "T"
    value {
      type: DT_FLOAT
    }
  }
  attr {
    key: "_output_shapes"
    value {
      list {
        shape {
          dim {
            size: 4096
          }
          dim {
            size: 256
          }
        }
      }
    }
  }
}
node {
  name: "bert/encoder/layer_0/attention/output/dropout/add"
  op: "Add"
  input: "bert/encoder/layer_0/attention/output/dropout/keep_prob"
  input: "bert/encoder/layer_0/attention/output/dropout/random_uniform"
  attr {
    key: "T"
    value {
      type: DT_FLOAT
    }
  }
  attr {
    key: "_output_shapes"
    value {
      list {
        shape {
          dim {
            size: 4096
          }
          dim {
            size: 256
          }
        }
      }
    }
  }
}
node {
  name: "bert/encoder/layer_0/attention/output/dropout/Floor"
  op: "Floor"
  input: "bert/encoder/layer_0/attention/output/dropout/add"
  attr {
    key: "T"
    value {
      type: DT_FLOAT
    }
  }
  attr {
    key: "_output_shapes"
    value {
      list {
        shape {
          dim {
            size: 4096
          }
          dim {
            size: 256
          }
        }
      }
    }
  }
}
node {
  name: "bert/encoder/layer_0/attention/output/dropout/div"
  op: "RealDiv"
  input: "bert/encoder/layer_0/attention/output/dense/BiasAdd"
  input: "bert/encoder/layer_0/attention/output/dropout/keep_prob"
  attr {
    key: "T"
    value {
      type: DT_FLOAT
    }
  }
  attr {
    key: "_output_shapes"
    value {
      list {
        shape {
          dim {
            size: 4096
          }
          dim {
            size: 256
          }
        }
      }
    }
  }
}
node {
  name: "bert/encoder/layer_0/attention/output/dropout/mul"
  op: "Mul"
  input: "bert/encoder/layer_0/attention/output/dropout/div"
  input: "bert/encoder/layer_0/attention/output/dropout/Floor"
  attr {
    key: "T"
    value {
      type: DT_FLOAT
    }
  }
  attr {
    key: "_output_shapes"
    value {
      list {
        shape {
          dim {
            size: 4096
          }
          dim {
            size: 256
          }
        }
      }
    }
  }
}
node {
  name: "bert/encoder/layer_0/attention/output/add"
  op: "Add"
  input: "bert/encoder/layer_0/attention/output/dropout/mul"
  input: "bert/encoder/Reshape_1"
  attr {
    key: "T"
    value {
      type: DT_FLOAT
    }
  }
  attr {
    key: "_output_shapes"
    value {
      list {
        shape {
          dim {
            size: 4096
          }
          dim {
            size: 256
          }
        }
      }
    }
  }
}
node {
  name: "bert/encoder/layer_0/attention/output/LayerNorm/beta/Initializer/zeros"
  op: "Const"
  attr {
    key: "_class"
    value {
      list {
        s: "loc:@bert/encoder/layer_0/attention/output/LayerNorm/beta"
      }
    }
  }
  attr {
    key: "_output_shapes"
    value {
      list {
        shape {
          dim {
            size: 256
          }
        }
      }
    }
  }
  attr {
    key: "dtype"
    value {
      type: DT_FLOAT
    }
  }
  attr {
    key: "value"
    value {
      tensor {
        dtype: DT_FLOAT
        tensor_shape {
          dim {
            size: 256
          }
        }
        float_val: 0.0
      }
    }
  }
}
node {
  name: "bert/encoder/layer_0/attention/output/LayerNorm/beta"
  op: "VariableV2"
  attr {
    key: "_class"
    value {
      list {
        s: "loc:@bert/encoder/layer_0/attention/output/LayerNorm/beta"
      }
    }
  }
  attr {
    key: "_output_shapes"
    value {
      list {
        shape {
          dim {
            size: 256
          }
        }
      }
    }
  }
  attr {
    key: "container"
    value {
      s: ""
    }
  }
  attr {
    key: "dtype"
    value {
      type: DT_FLOAT
    }
  }
  attr {
    key: "shape"
    value {
      shape {
        dim {
          size: 256
        }
      }
    }
  }
  attr {
    key: "shared_name"
    value {
      s: ""
    }
  }
}
node {
  name: "bert/encoder/layer_0/attention/output/LayerNorm/beta/Assign"
  op: "Assign"
  input: "bert/encoder/layer_0/attention/output/LayerNorm/beta"
  input: "bert/encoder/layer_0/attention/output/LayerNorm/beta/Initializer/zeros"
  attr {
    key: "T"
    value {
      type: DT_FLOAT
    }
  }
  attr {
    key: "_class"
    value {
      list {
        s: "loc:@bert/encoder/layer_0/attention/output/LayerNorm/beta"
      }
    }
  }
  attr {
    key: "_output_shapes"
    value {
      list {
        shape {
          dim {
            size: 256
          }
        }
      }
    }
  }
  attr {
    key: "use_locking"
    value {
      b: true
    }
  }
  attr {
    key: "validate_shape"
    value {
      b: true
    }
  }
}
node {
  name: "bert/encoder/layer_0/attention/output/LayerNorm/beta/read"
  op: "Identity"
  input: "bert/encoder/layer_0/attention/output/LayerNorm/beta"
  attr {
    key: "T"
    value {
      type: DT_FLOAT
    }
  }
  attr {
    key: "_class"
    value {
      list {
        s: "loc:@bert/encoder/layer_0/attention/output/LayerNorm/beta"
      }
    }
  }
  attr {
    key: "_output_shapes"
    value {
      list {
        shape {
          dim {
            size: 256
          }
        }
      }
    }
  }
}
node {
  name: "bert/encoder/layer_0/attention/output/LayerNorm/gamma/Initializer/ones"
  op: "Const"
  attr {
    key: "_class"
    value {
      list {
        s: "loc:@bert/encoder/layer_0/attention/output/LayerNorm/gamma"
      }
    }
  }
  attr {
    key: "_output_shapes"
    value {
      list {
        shape {
          dim {
            size: 256
          }
        }
      }
    }
  }
  attr {
    key: "dtype"
    value {
      type: DT_FLOAT
    }
  }
  attr {
    key: "value"
    value {
      tensor {
        dtype: DT_FLOAT
        tensor_shape {
          dim {
            size: 256
          }
        }
        float_val: 1.0
      }
    }
  }
}
node {
  name: "bert/encoder/layer_0/attention/output/LayerNorm/gamma"
  op: "VariableV2"
  attr {
    key: "_class"
    value {
      list {
        s: "loc:@bert/encoder/layer_0/attention/output/LayerNorm/gamma"
      }
    }
  }
  attr {
    key: "_output_shapes"
    value {
      list {
        shape {
          dim {
            size: 256
          }
        }
      }
    }
  }
  attr {
    key: "container"
    value {
      s: ""
    }
  }
  attr {
    key: "dtype"
    value {
      type: DT_FLOAT
    }
  }
  attr {
    key: "shape"
    value {
…
  op: "Assign"
  input: "bert/encoder/layer_3/attention/self/value/kernel/adam_m"
  input: "save/RestoreV2:187"
  attr {
    key: "T"
    value {
      type: DT_FLOAT
    }
  }
  attr {
    key: "_class"
    value {
      list {
        s: "loc:@bert/encoder/layer_3/attention/self/value/kernel/adam_m"
      }
    }
  }
  attr {
    key: "_output_shapes"
    value {
      list {
        shape {
          dim {
            size: 256
          }
          dim {
            size: 256
          }
        }
      }
    }
  }
  attr {
    key: "use_locking"
    value {
      b: true
    }
  }
  attr {
    key: "validate_shape"
    value {
      b: true
    }
  }
}
node {
  name: "save/Assign_188"
  op: "Assign"
  input: "bert/encoder/layer_3/attention/self/value/kernel/adam_v"
  input: "save/RestoreV2:188"
  attr {
    key: "T"
    value {
      type: DT_FLOAT
    }
  }
  attr {
    key: "_class"
    value {
      list {
        s: "loc:@bert/encoder/layer_3/attention/self/value/kernel/adam_v"
      }
    }
  }
  attr {
    key: "_output_shapes"
    value {
      list {
        shape {
          dim {
            size: 256
          }
          dim {
            size: 256
          }
        }
      }
    }
  }
  attr {
    key: "use_locking"
    value {
      b: true
    }
  }
  attr {
    key: "validate_shape"
    value {
      b: true
    }
  }
}
node {
  name: "save/Assign_189"
  op: "Assign"
  input: "bert/encoder/layer_3/intermediate/dense/bias"
  input: "save/RestoreV2:189"
  attr {
    key: "T"
    value {
      type: DT_FLOAT
    }
  }
  attr {
    key: "_class"
    value {
      list {
        s: "loc:@bert/encoder/layer_3/intermediate/dense/bias"
      }
    }
  }
  attr {
    key: "_output_shapes"
    value {
      list {
        shape {
          dim {
            size: 1024
          }
        }
      }
    }
  }
  attr {
    key: "use_locking"
    value {
      b: true
    }
  }
  attr {
    key: "validate_shape"
    value {
      b: true
    }
  }
}
node {
  name: "save/Assign_190"
  op: "Assign"
  input: "bert/encoder/layer_3/intermediate/dense/bias/adam_m"
  input: "save/RestoreV2:190"
  attr {
    key: "T"
    value {
      type: DT_FLOAT
    }
  }
  attr {
    key: "_class"
    value {
      list {
        s: "loc:@bert/encoder/layer_3/intermediate/dense/bias/adam_m"
      }
    }
  }
  attr {
    key: "_output_shapes"
    value {
      list {
        shape {
          dim {
            size: 1024
          }
        }
      }
    }
  }
  attr {
    key: "use_locking"
    value {
      b: true
    }
  }
  attr {
    key: "validate_shape"
    value {
      b: true
    }
  }
}
node {
  name: "save/Assign_191"
  op: "Assign"
  input: "bert/encoder/layer_3/intermediate/dense/bias/adam_v"
  input: "save/RestoreV2:191"
  attr {
    key: "T"
    value {
      type: DT_FLOAT
    }
  }
  attr {
    key: "_class"
    value {
      list {
        s: "loc:@bert/encoder/layer_3/intermediate/dense/bias/adam_v"
      }
    }
  }
  attr {
    key: "_output_shapes"
    value {
      list {
        shape {
          dim {
            size: 1024
          }
        }
      }
    }
  }
  attr {
    key: "use_locking"
    value {
      b: true
    }
  }
  attr {
    key: "validate_shape"
    value {
      b: true
    }
  }
}
node {
  name: "save/Assign_192"
  op: "Assign"
  input: "bert/encoder/layer_3/intermediate/dense/kernel"
  input: "save/RestoreV2:192"
  attr {
    key: "T"
    value {
      type: DT_FLOAT
    }
  }
  attr {
    key: "_class"
    value {
      list {
        s: "loc:@bert/encoder/layer_3/intermediate/dense/kernel"
      }
    }
  }
  attr {
    key: "_output_shapes"
    value {
      list {
        shape {
          dim {
            size: 256
          }
          dim {
            size: 1024
          }
        }
      }
    }
  }
  attr {
    key: "use_locking"
    value {
      b: true
    }
  }
  attr {
    key: "validate_shape"
    value {
      b: true
    }
  }
}
node {
  name: "save/Assign_193"
  op: "Assign"
  input: "bert/encoder/layer_3/intermediate/dense/kernel/adam_m"
  input: "save/RestoreV2:193"
  attr {
    key: "T"
    value {
      type: DT_FLOAT
    }
  }
  attr {
    key: "_class"
    value {
      list {
        s: "loc:@bert/encoder/layer_3/intermediate/dense/kernel/adam_m"
      }
    }
  }
  attr {
    key: "_output_shapes"
    value {
      list {
        shape {
          dim {
            size: 256
          }
          dim {
            size: 1024
          }
        }
      }
    }
  }
  attr {
    key: "use_locking"
    value {
      b: true
    }
  }
  attr {
    key: "validate_shape"
    value {
      b: true
    }
  }
}
node {
  name: "save/Assign_194"
  op: "Assign"
  input: "bert/encoder/layer_3/intermediate/dense/kernel/adam_v"
  input: "save/RestoreV2:194"
  attr {
    key: "T"
    value {
      type: DT_FLOAT
    }
  }
  attr {
    key: "_class"
    value {
      list {
        s: "loc:@bert/encoder/layer_3/intermediate/dense/kernel/adam_v"
      }
    }
  }
  attr {
    key: "_output_shapes"
    value {
      list {
        shape {
          dim {
            size: 256
          }
          dim {
            size: 1024
          }
        }
      }
    }
  }
  attr {
    key: "use_locking"
    value {
      b: true
    }
  }
  attr {
    key: "validate_shape"
    value {
      b: true
    }
  }
}
node {
  name: "save/Assign_195"
  op: "Assign"
  input: "bert/encoder/layer_3/output/LayerNorm/beta"
  input: "save/RestoreV2:195"
  attr {
    key: "T"
    value {
      type: DT_FLOAT
    }
  }
  attr {
    key: "_class"
    value {
      list {
        s: "loc:@bert/encoder/layer_3/output/LayerNorm/beta"
      }
    }
  }
  attr {
    key: "_output_shapes"
    value {
      list {
        shape {
          dim {
            size: 256
          }
        }
      }
    }
  }
  attr {
    key: "use_locking"
    value {
      b: true
    }
  }
  attr {
    key: "validate_shape"
    value {
      b: true
    }
  }
}
node {
  name: "save/Assign_196"
  op: "Assign"
  input: "bert/encoder/layer_3/output/LayerNorm/beta/adam_m"
  input: "save/RestoreV2:196"
  attr {
    key: "T"
    value {
      type: DT_FLOAT
    }
  }
  attr {
    key: "_class"
    value {
      list {
        s: "loc:@bert/encoder/layer_3/output/LayerNorm/beta/adam_m"
      }
    }
  }
  attr {
    key: "_output_shapes"
    value {
      list {
        shape {
          dim {
            size: 256
          }
        }
      }
    }
  }
  attr {
    key: "use_locking"
    value {
      b: true
    }
  }
  attr {
    key: "validate_shape"
    value {
      b: true
    }
  }
}
node {
  name: "save/Assign_197"
  op: "Assign"
  input: "bert/encoder/layer_3/output/LayerNorm/beta/adam_v"
  input: "save/RestoreV2:197"
  attr {
    key: "T"
    value {
      type: DT_FLOAT
    }
  }
  attr {
    key: "_class"
    value {
      list {
        s: "loc:@bert/encoder/layer_3/output/LayerNorm/beta/adam_v"
      }
    }
  }
  attr {
    key: "_output_shapes"
    value {
      list {
        shape {
          dim {
            size: 256
          }
        }
      }
    }
  }
  attr {
    key: "use_locking"
    value {
      b: true
    }
  }
  attr {
    key: "validate_shape"
    value {
      b: true
    }
  }
}
node {
  name: "save/Assign_198"
  op: "Assign"
  input: "bert/encoder/layer_3/output/LayerNorm/gamma"
  input: "save/RestoreV2:198"
  attr {
    key: "T"
    value {
      type: DT_FLOAT
    }
  }
  attr {
    key: "_class"
    value {
      list {
        s: "loc:@bert/encoder/layer_3/output/LayerNorm/gamma"
      }
    }
  }
  attr {
    key: "_output_shapes"
    value {
      list {
        shape {
          dim {
            size: 256
          }
        }
      }
    }
  }
  attr {
    key: "use_locking"
    value {
      b: true
    }
  }
  attr {
    key: "validate_shape"
    value {
      b: true
    }
  }
}
node {
  name: "save/Assign_199"
  op: "Assign"
  input: "bert/encoder/layer_3/output/LayerNorm/gamma/adam_m"
  input: "save/RestoreV2:199"
  attr {
    key: "T"
    value {
      type: DT_FLOAT
    }
  }
  attr {
    key: "_class"
    value {
      list {
        s: "loc:@bert/encoder/layer_3/output/LayerNorm/gamma/adam_m"
      }
    }
  }
  attr {
    key: "_output_shapes"
    value {
      list {
        shape {
          dim {
            size: 256
          }
        }
      }
    }
  }
  attr {
    key: "use_locking"
    value {
      b: true
    }
  }
  attr {
    key: "validate_shape"
    value {
      b: true
    }
  }
}
node {
  name: "save/Assign_200"
  op: "Assign"
  input: "bert/encoder/layer_3/output/LayerNorm/gamma/adam_v"
  input: "save/RestoreV2:200"
  attr {
    key: "T"
    value {
      type: DT_FLOAT
    }
  }
  attr {
    key: "_class"
    value {
      list {
        s: "loc:@bert/encoder/layer_3/output/LayerNorm/gamma/adam_v"
      }
    }
  }
  attr {
    key: "_output_shapes"
    value {
      list {
        shape {
          dim {
            size: 256
          }
        }
      }
    }
  }
  attr {
    key: "use_locking"
    value {
      b: true
    }
  }
  attr {
    key: "validate_shape"
    value {
      b: true
    }
  }
}
node {
  name: "save/Assign_201"
  op: "Assign"
  input: "bert/encoder/layer_3/output/dense/bias"
  input: "save/RestoreV2:201"
  attr {
    key: "T"
    value {
      type: DT_FLOAT
    }
  }
  attr {
    key: "_class"
    value {
      list {
        s: "loc:@bert/encoder/layer_3/output/dense/bias"
      }
    }
  }
  attr {
    key: "_output_shapes"
    value {
      list {
        shape {
          dim {
            size: 256
          }
        }
      }
    }
  }
  attr {
    key: "use_locking"
    value {
      b: true
    }
  }
  attr {
    key: "validate_shape"
    value {
      b: true
    }
  }
}
node {
  name: "save/Assign_202"
  op: "Assign"
  input: "bert/encoder/layer_3/output/dense/bias/adam_m"
  input: "save/RestoreV2:202"
  attr {
    key: "T"
    value {
      type: DT_FLOAT
    }
  }
  attr {
    key: "_class"
    value {
      list {
        s: "loc:@bert/encoder/layer_3/output/dense/bias/adam_m"
      }
    }
  }
  attr {
    key: "_output_shapes"
    value {
      list {
        shape {
          dim {
            size: 256
          }
        }
      }
    }
  }
  attr {
    key: "use_locking"
    value {
      b: true
    }
  }
  attr {
    key: "validate_shape"
    value {
      b: true
    }
  }
}
node {
  name: "save/Assign_203"
  op: "Assign"
  input: "bert/encoder/layer_3/output/dense/bias/adam_v"
  input: "save/RestoreV2:203"
  attr {
    key: "T"
    value {
      type: DT_FLOAT
    }
  }
  attr {
    key: "_class"
    value {
      list {
        s: "loc:@bert/encoder/layer_3/output/dense/bias/adam_v"
      }
    }
  }
  attr {
    key: "_output_shapes"
    value {
      list {
        shape {
          dim {
            size: 256
          }
        }
      }
    }
  }
  attr {
    key: "use_locking"
    value {
      b: true
    }
  }
  attr {
    key: "validate_shape"
    value {
      b: true
    }
  }
}
node {
  name: "save/Assign_204"
  op: "Assign"
  input: "bert/encoder/layer_3/output/dense/kernel"
  input: "save/RestoreV2:204"
  attr {
    key: "T"
    value {
      type: DT_FLOAT
    }
  }
  attr {
    key: "_class"
    value {
      list {
        s: "loc:@bert/encoder/layer_3/output/dense/kernel"
      }
    }
  }
  attr {
    key: "_output_shapes"
    value {
      list {
        shape {
          dim {
            size: 1024
          }
          dim {
            size: 256
          }
        }
      }
    }
  }
  attr {
    key: "use_locking"
    value {
      b: true
    }
  }
  attr {
    key: "validate_shape"
    value {
      b: true
    }
  }
}
node {
  name: "save/Assign_205"
  op: "Assign"
  input: "bert/encoder/layer_3/output/dense/kernel/adam_m"
  input: "save/RestoreV2:205"
  attr {
    key: "T"
    value {
      type: DT_FLOAT
    }
  }
  attr {
    key: "_class"
    value {
      list {
        s: "loc:@bert/encoder/layer_3/output/dense/kernel/adam_m"
      }
    }
  }
  attr {
    key: "_output_shapes"
    value {
      list {
        shape {
          dim {
            size: 1024
          }
          dim {
            size: 256
          }
        }
      }
    }
  }
  attr {
    key: "use_locking"
    value {
      b: true
    }
  }
  attr {
    key: "validate_shape"
    value {
      b: true
    }
  }
}
node {
  name: "save/Assign_206"
  op: "Assign"
  input: "bert/encoder/layer_3/output/dense/kernel/adam_v"
  input: "save/RestoreV2:206"
  attr {
    key: "T"
    value {
      type: DT_FLOAT
    }
  }
  attr {
    key: "_class"
    value {
      list {
        s: "loc:@bert/encoder/layer_3/output/dense/kernel/adam_v"
      }
    }
  }
  attr {
    key: "_output_shapes"
    value {
      list {
        shape {
          dim {
            size: 1024
          }
          dim {
            size: 256
          }
        }
      }
    }
  }
  attr {
    key: "use_locking"
    value {
      b: true
    }
  }
  attr {
    key: "validate_shape"
    value {
      b: true
    }
  }
}
node {
  name: "save/Assign_207"
  op: "Assign"
  input: "bert/pooler/dense/bias"
  input: "save/RestoreV2:207"
  attr {
    key: "T"
    value {
      type: DT_FLOAT
    }
  }
  attr {
    key: "_class"
    value {
      list {
        s: "loc:@bert/pooler/dense/bias"
      }
    }
  }
  attr {
    key: "_output_shapes"
    value {
      list {
        shape {
          dim {
            size: 256
          }
        }
      }
    }
  }
  attr {
    key: "use_locking"
    value {
      b: true
    }
  }
  attr {
    key: "validate_shape"
    value {
      b: true
    }
  }
}
node {
  name: "save/Assign_208"
  op: "Assign"
  input: "bert/pooler/dense/bias/adam_m"
  input: "save/RestoreV2:208"
  attr {
    key: "T"
    value {
      type: DT_FLOAT
    }
  }
  attr {
    key: "_class"
    value {
      list {
        s: "loc:@bert/pooler/dense/bias/adam_m"
      }
    }
  }
  attr {
    key: "_output_shapes"
    value {
      list {
        shape {
          dim {
            size: 256
          }
        }
      }
    }
  }
  attr {
    key: "use_locking"
    value {
      b: true
    }
  }
  attr {
    key: "validate_shape"
    value {
      b: true
    }
  }
}
node {
  name: "save/Assign_209"
  op: "Assign"
  input: "bert/pooler/dense/bias/adam_v"
  input: "save/RestoreV2:209"
  attr {
    key: "T"
    value {
      type: DT_FLOAT
    }
  }
  attr {
    key: "_class"
    value {
      list {
        s: "loc:@bert/pooler/dense/bias/adam_v"
      }
    }
  }
  attr {
    key: "_output_shapes"
    value {
      list {
        shape {
          dim {
            size: 256
          }
        }
      }
    }
  }
  attr {
    key: "use_locking"
    value {
      b: true
    }
  }
  attr {
    key: "validate_shape"
    value {
      b: true
    }
  }
}
node {
  name: "save/Assign_210"
  op: "Assign"
  input: "bert/pooler/dense/kernel"
  input: "save/RestoreV2:210"
  attr {
    key: "T"
    value {
      type: DT_FLOAT
    }
  }
  attr {
    key: "_class"
    value {
      list {
        s: "loc:@bert/pooler/dense/kernel"
      }
    }
  }
  attr {
    key: "_output_shapes"
    value {
      list {
        shape {
          dim {
            size: 256
          }
          dim {
            size: 256
          }
        }
      }
    }
  }
  attr {
    key: "use_locking"
    value {
      b: true
    }
  }
  attr {
    key: "validate_shape"
    value {
      b: true
    }
  }
}
node {
  name: "save/Assign_211"
  op: "Assign"
  input: "bert/pooler/dense/kernel/adam_m"
  input: "save/RestoreV2:211"
  attr {
    key: "T"
    value {
      type: DT_FLOAT
    }
  }
  attr {
    key: "_class"
    value {
      list {
        s: "loc:@bert/pooler/dense/kernel/adam_m"
      }
    }
  }
  attr {
    key: "_output_shapes"
    value {
      list {
        shape {
          dim {
            size: 256
          }
          dim {
            size: 256
          }
        }
      }
    }
  }
  attr {
    key: "use_locking"
    value {
      b: true
    }
  }
  attr {
    key: "validate_shape"
    value {
      b: true
    }
  }
}
node {
  name: "save/Assign_212"
  op: "Assign"
  input: "bert/pooler/dense/kernel/adam_v"
  input: "save/RestoreV2:212"
  attr {
    key: "T"
    value {
      type: DT_FLOAT
    }
  }
  attr {
    key: "_class"
    value {
      list {
        s: "loc:@bert/pooler/dense/kernel/adam_v"
      }
    }
  }
  attr {
    key: "_output_shapes"
    value {
      list {
        shape {
          dim {
            size: 256
          }
          dim {
            size: 256
          }
        }
      }
    }
  }
  attr {
    key: "use_locking"
    value {
      b: true
    }
  }
  attr {
    key: "validate_shape"
    value {
      b: true
    }
  }
}
node {
  name: "save/Assign_213"
  op: "Assign"
  input: "cls/predictions/output_bias"
  input: "save/RestoreV2:213"
  attr {
    key: "T"
    value {
      type: DT_FLOAT
    }
  }
  attr {
    key: "_class"
    value {
      list {
        s: "loc:@cls/predictions/output_bias"
      }
    }
  }
  attr {
    key: "_output_shapes"
    value {
      list {
        shape {
          dim {
            size: 30522
          }
        }
      }
    }
  }
  attr {
    key: "use_locking"
    value {
      b: true
    }
  }
  attr {
    key: "validate_shape"
    value {
      b: true
    }
  }
}
node {
  name: "save/Assign_214"
  op: "Assign"
  input: "cls/predictions/output_bias/adam_m"
  input: "save/RestoreV2:214"
  attr {
    key: "T"
    value {
      type: DT_FLOAT
    }
  }
  attr {
    key: "_class"
    value {
      list {
        s: "loc:@cls/predictions/output_bias/adam_m"
      }
    }
  }
  attr {
    key: "_output_shapes"
    value {
      list {
        shape {
          dim {
            size: 30522
          }
        }
      }
    }
  }
  attr {
    key: "use_locking"
    value {
      b: true
    }
  }
  attr {
    key: "validate_shape"
    value {
      b: true
    }
  }
}
node {
  name: "save/Assign_215"
  op: "Assign"
  input: "cls/predictions/output_bias/adam_v"
  input: "save/RestoreV2:215"
  attr {
    key: "T"
    value {
      type: DT_FLOAT
    }
  }
  attr {
    key: "_class"
    value {
      list {
        s: "loc:@cls/predictions/output_bias/adam_v"
      }
    }
  }
  attr {
    key: "_output_shapes"
    value {
      list {
        shape {
          dim {
            size: 30522
          }
        }
      }
    }
  }
  attr {
    key: "use_locking"
    value {
      b: true
    }
  }
  attr {
    key: "validate_shape"
    value {
      b: true
    }
  }
}
node {
  name: "save/Assign_216"
  op: "Assign"
  input: "cls/predictions/transform/LayerNorm/beta"
  input: "save/RestoreV2:216"
  attr {
    key: "T"
    value {
      type: DT_FLOAT
    }
  }
  attr {
    key: "_class"
    value {
      list {
        s: "loc:@cls/predictions/transform/LayerNorm/beta"
      }
    }
  }
  attr {
    key: "_output_shapes"
    value {
      list {
        shape {
          dim {
            size: 256
          }
        }
      }
    }
  }
  attr {
    key: "use_locking"
    value {
      b: true
    }
  }
  attr {
    key: "validate_shape"
    value {
      b: true
    }
  }
}
node {
  name: "save/Assign_217"
  op: "Assign"
  input: "cls/predictions/transform/LayerNorm/beta/adam_m"
  input: "save/RestoreV2:217"
  attr {
    key: "T"
    value {
      type: DT_FLOAT
    }
  }
  attr {
    key: "_class"
    value {
      list {
        s: "loc:@cls/predictions/transform/LayerNorm/beta/adam_m"
      }
    }
  }
  attr {
    key: "_output_shapes"
    value {
      list {
        shape {
          dim {
            size: 256
          }
        }
      }
    }
  }
  attr {
    key: "use_locking"
    value {
      b: true
    }
  }
  attr {
    key: "validate_shape"
    value {
      b: true
    }
  }
}
node {
  name: "save/Assign_218"
  op: "Assign"
  input: "cls/predictions/transform/LayerNorm/beta/adam_v"
  input: "save/RestoreV2:218"
  attr {
    key: "T"
    value {
      type: DT_FLOAT
    }
  }
  attr {
    key: "_class"
    value {
      list {
        s: "loc:@cls/predictions/transform/LayerNorm/beta/adam_v"
      }
    }
  }
  attr {
    key: "_output_shapes"
    value {
      list {
        shape {
          dim {
            size: 256
          }
        }
      }
    }
  }
  attr {
    key: "use_locking"
    value {
      b: true
    }
  }
  attr {
    key: "validate_shape"
    value {
      b: true
    }
  }
}
node {
  name: "save/Assign_219"
  op: "Assign"
  input: "cls/predictions/transform/LayerNorm/gamma"
  input: "save/RestoreV2:219"
  attr {
    key: "T"
    value {
      type: DT_FLOAT
    }
  }
  attr {
    key: "_class"
    value {
      list {
        s: "loc:@cls/predictions/transform/LayerNorm/gamma"
      }
    }
  }
  attr {
    key: "_output_shapes"
    value {
      list {
        shape {
          dim {
            size: 256
          }
        }
      }
    }
  }
  attr {
    key: "use_locking"
    value {
      b: true
    }
  }
  attr {
    key: "validate_shape"
    value {
      b: true
    }
  }
}
node {
  name: "save/Assign_220"
  op: "Assign"
  input: "cls/predictions/transform/LayerNorm/gamma/adam_m"
  input: "save/RestoreV2:220"
  attr {
    key: "T"
    value {
      type: DT_FLOAT
    }
  }
  attr {
    key: "_class"
    value {
      list {
        s: "loc:@cls/predictions/transform/LayerNorm/gamma/adam_m"
      }
    }
  }
  attr {
    key: "_output_shapes"
    value {
      list {
        shape {
          dim {
            size: 256
          }
        }
      }
    }
  }
  attr {
    key: "use_locking"
    value {
      b: true
    }
  }
  attr {
    key: "validate_shape"
    value {
      b: true
    }
  }
}
node {
  name: "save/Assign_221"
  op: "Assign"
  input: "cls/predictions/transform/LayerNorm/gamma/adam_v"
  input: "save/RestoreV2:221"
  attr {
    key: "T"
    value {
      type: DT_FLOAT
    }
  }
  attr {
    key: "_class"
    value {
      list {
        s: "loc:@cls/predictions/transform/LayerNorm/gamma/adam_v"
      }
    }
  }
  attr {
    key: "_output_shapes"
    value {
      list {
        shape {
          dim {
            size: 256
          }
        }
      }
    }
  }
  attr {
    key: "use_locking"
    value {
      b: true
    }
  }
  attr {
    key: "validate_shape"
    value {
      b: true
    }
  }
}
node {
  name: "save/Assign_222"
  op: "Assign"
  input: "cls/predictions/transform/dense/bias"
  input: "save/RestoreV2:222"
  attr {
    key: "T"
    value {
      type: DT_FLOAT
    }
  }
  attr {
    key: "_class"
    value {
      list {
        s: "loc:@cls/predictions/transform/dense/bias"
      }
    }
  }
  attr {
    key: "_output_shapes"
    value {
      list {
        shape {
          dim {
            size: 256
          }
        }
      }
    }
  }
  attr {
    key: "use_locking"
    value {
      b: true
    }
  }
  attr {
    key: "validate_shape"
    value {
      b: true
    }
  }
}
node {
  name: "save/Assign_223"
  op: "Assign"
  input: "cls/predictions/transform/dense/bias/adam_m"
  input: "save/RestoreV2:223"
  attr {
    key: "T"
    value {
      type: DT_FLOAT
    }
  }
  attr {
    key: "_class"
    value {
      list {
        s: "loc:@cls/predictions/transform/dense/bias/adam_m"
      }
    }
  }
  attr {
    key: "_output_shapes"
    value {
      list {
        shape {
          dim {
            size: 256
          }
        }
      }
    }
  }
  attr {
    key: "use_locking"
    value {
      b: true
    }
  }
  attr {
    key: "validate_shape"
    value {
      b: true
    }
  }
}
node {
  name: "save/Assign_224"
  op: "Assign"
  input: "cls/predictions/transform/dense/bias/adam_v"
  input: "save/RestoreV2:224"
  attr {
    key: "T"
    value {
      type: DT_FLOAT
    }
  }
  attr {
    key: "_class"
    value {
      list {
        s: "loc:@cls/predictions/transform/dense/bias/adam_v"
      }
    }
  }
  attr {
    key: "_output_shapes"
    value {
      list {
        shape {
          dim {
            size: 256
          }
        }
      }
    }
  }
  attr {
    key: "use_locking"
    value {
      b: true
    }
  }
  attr {
    key: "validate_shape"
    value {
      b: true
    }
  }
}
node {
  name: "save/Assign_225"
  op: "Assign"
  input: "cls/predictions/transform/dense/kernel"
  input: "save/RestoreV2:225"
  attr {
    key: "T"
    value {
      type: DT_FLOAT
    }
  }
  attr {
    key: "_class"
    value {
      list {
        s: "loc:@cls/predictions/transform/dense/kernel"
      }
    }
  }
  attr {
    key: "_output_shapes"
    value {
      list {
        shape {
          dim {
            size: 256
          }
          dim {
            size: 256
          }
        }
      }
    }
  }
  attr {
    key: "use_locking"
    value {
      b: true
    }
  }
  attr {
    key: "validate_shape"
    value {
      b: true
    }
  }
}
node {
  name: "save/Assign_226"
  op: "Assign"
  input: "cls/predictions/transform/dense/kernel/adam_m"
  input: "save/RestoreV2:226"
  attr {
    key: "T"
    value {
      type: DT_FLOAT
    }
  }
  attr {
    key: "_class"
    value {
      list {
        s: "loc:@cls/predictions/transform/dense/kernel/adam_m"
      }
    }
  }
  attr {
    key: "_output_shapes"
    value {
      list {
        shape {
          dim {
            size: 256
          }
          dim {
            size: 256
          }
        }
      }
    }
  }
  attr {
    key: "use_locking"
    value {
      b: true
    }
  }
  attr {
    key: "validate_shape"
    value {
      b: true
    }
  }
}
node {
  name: "save/Assign_227"
  op: "Assign"
  input: "cls/predictions/transform/dense/kernel/adam_v"
  input: "save/RestoreV2:227"
  attr {
    key: "T"
    value {
      type: DT_FLOAT
    }
  }
  attr {
    key: "_class"
    value {
      list {
        s: "loc:@cls/predictions/transform/dense/kernel/adam_v"
      }
    }
  }
  attr {
    key: "_output_shapes"
    value {
      list {
        shape {
          dim {
            size: 256
          }
          dim {
            size: 256
          }
        }
      }
    }
  }
  attr {
    key: "use_locking"
    value {
      b: true
    }
  }
  attr {
    key: "validate_shape"
    value {
      b: true
    }
  }
}
node {
  name: "save/Assign_228"
  op: "Assign"
  input: "cls/seq_relationship/output_bias"
  input: "save/RestoreV2:228"
  attr {
    key: "T"
    value {
      type: DT_FLOAT
    }
  }
  attr {
    key: "_class"
    value {
      list {
        s: "loc:@cls/seq_relationship/output_bias"
      }
    }
  }
  attr {
    key: "_output_shapes"
    value {
      list {
        shape {
          dim {
            size: 2
          }
        }
      }
    }
  }
  attr {
    key: "use_locking"
    value {
      b: true
    }
  }
  attr {
    key: "validate_shape"
    value {
      b: true
    }
  }
}
node {
  name: "save/Assign_229"
  op: "Assign"
  input: "cls/seq_relationship/output_bias/adam_m"
  input: "save/RestoreV2:229"
  attr {
    key: "T"
    value {
      type: DT_FLOAT
    }
  }
  attr {
    key: "_class"
    value {
      list {
        s: "loc:@cls/seq_relationship/output_bias/adam_m"
      }
    }
  }
  attr {
    key: "_output_shapes"
    value {
      list {
        shape {
          dim {
            size: 2
          }
        }
      }
    }
  }
  attr {
    key: "use_locking"
    value {
      b: true
    }
  }
  attr {
    key: "validate_shape"
    value {
      b: true
    }
  }
}
node {
  name: "save/Assign_230"
  op: "Assign"
  input: "cls/seq_relationship/output_bias/adam_v"
  input: "save/RestoreV2:230"
  attr {
    key: "T"
    value {
      type: DT_FLOAT
    }
  }
  attr {
    key: "_class"
    value {
      list {
        s: "loc:@cls/seq_relationship/output_bias/adam_v"
      }
    }
  }
  attr {
    key: "_output_shapes"
    value {
      list {
        shape {
          dim {
            size: 2
          }
        }
      }
    }
  }
  attr {
    key: "use_locking"
    value {
      b: true
    }
  }
  attr {
    key: "validate_shape"
    value {
      b: true
    }
  }
}
node {
  name: "save/Assign_231"
  op: "Assign"
  input: "cls/seq_relationship/output_weights"
  input: "save/RestoreV2:231"
  attr {
    key: "T"
    value {
      type: DT_FLOAT
    }
  }
  attr {
    key: "_class"
    value {
      list {
        s: "loc:@cls/seq_relationship/output_weights"
      }
    }
  }
  attr {
    key: "_output_shapes"
    value {
      list {
        shape {
          dim {
            size: 2
          }
          dim {
            size: 256
          }
        }
      }
    }
  }
  attr {
    key: "use_locking"
    value {
      b: true
    }
  }
  attr {
    key: "validate_shape"
    value {
      b: true
    }
  }
}
node {
  name: "save/Assign_232"
  op: "Assign"
  input: "cls/seq_relationship/output_weights/adam_m"
  input: "save/RestoreV2:232"
  attr {
    key: "T"
    value {
      type: DT_FLOAT
    }
  }
  attr {
    key: "_class"
    value {
      list {
        s: "loc:@cls/seq_relationship/output_weights/adam_m"
      }
    }
  }
  attr {
    key: "_output_shapes"
    value {
      list {
        shape {
          dim {
            size: 2
          }
          dim {
            size: 256
          }
        }
      }
    }
  }
  attr {
    key: "use_locking"
    value {
      b: true
    }
  }
  attr {
    key: "validate_shape"
    value {
      b: true
    }
  }
}
node {
  name: "save/Assign_233"
  op: "Assign"
  input: "cls/seq_relationship/output_weights/adam_v"
  input: "save/RestoreV2:233"
  attr {
    key: "T"
    value {
      type: DT_FLOAT
    }
  }
  attr {
    key: "_class"
    value {
      list {
        s: "loc:@cls/seq_relationship/output_weights/adam_v"
      }
    }
  }
  attr {
    key: "_output_shapes"
    value {
      list {
        shape {
          dim {
            size: 2
          }
          dim {
            size: 256
          }
        }
      }
    }
  }
  attr {
    key: "use_locking"
    value {
      b: true
    }
  }
  attr {
    key: "validate_shape"
    value {
      b: true
    }
  }
}
node {
  name: "save/Identity_1"
  op: "Identity"
  input: "save/RestoreV2:234"
  attr {
    key: "T"
    value {
      type: DT_INT64
    }
  }
  attr {
    key: "_output_shapes"
    value {
      list {
        shape {
          unknown_rank: true
        }
      }
    }
  }
}
node {
  name: "save/AssignVariableOp"
  op: "AssignVariableOp"
  input: "global_step"
  input: "save/Identity_1"
  attr {
    key: "dtype"
    value {
      type: DT_INT64
    }
  }
}
node {
  name: "save/restore_shard"
  op: "NoOp"
  input: "^save/Assign"
  input: "^save/AssignVariableOp"
  input: "^save/Assign_1"
  input: "^save/Assign_10"
  input: "^save/Assign_100"
  input: "^save/Assign_101"
  input: "^save/Assign_102"
  input: "^save/Assign_103"
  input: "^save/Assign_104"
  input: "^save/Assign_105"
  input: "^save/Assign_106"
  input: "^save/Assign_107"
  input: "^save/Assign_108"
  input: "^save/Assign_109"
  input: "^save/Assign_11"
  input: "^save/Assign_110"
  input: "^save/Assign_111"
  input: "^save/Assign_112"
  input: "^save/Assign_113"
  input: "^save/Assign_114"
  input: "^save/Assign_115"
  input: "^save/Assign_116"
  input: "^save/Assign_117"
  input: "^save/Assign_118"
  input: "^save/Assign_119"
  input: "^save/Assign_12"
  input: "^save/Assign_120"
  input: "^save/Assign_121"
  input: "^save/Assign_122"
  input: "^save/Assign_123"
  input: "^save/Assign_124"
  input: "^save/Assign_125"
  input: "^save/Assign_126"
  input: "^save/Assign_127"
  input: "^save/Assign_128"
  input: "^save/Assign_129"
  input: "^save/Assign_13"
  input: "^save/Assign_130"
  input: "^save/Assign_131"
  input: "^save/Assign_132"
  input: "^save/Assign_133"
  input: "^save/Assign_134"
  input: "^save/Assign_135"
  input: "^save/Assign_136"
  input: "^save/Assign_137"
  input: "^save/Assign_138"
  input: "^save/Assign_139"
  input: "^save/Assign_14"
  input: "^save/Assign_140"
  input: "^save/Assign_141"
  input: "^save/Assign_142"
  input: "^save/Assign_143"
  input: "^save/Assign_144"
  input: "^save/Assign_145"
  input: "^save/Assign_146"
  input: "^save/Assign_147"
  input: "^save/Assign_148"
  input: "^save/Assign_149"
  input: "^save/Assign_15"
  input: "^save/Assign_150"
  input: "^save/Assign_151"
  input: "^save/Assign_152"
  input: "^save/Assign_153"
  input: "^save/Assign_154"
  input: "^save/Assign_155"
  input: "^save/Assign_156"
  input: "^save/Assign_157"
  input: "^save/Assign_158"
  input: "^save/Assign_159"
  input: "^save/Assign_16"
  input: "^save/Assign_160"
  input: "^save/Assign_161"
  input: "^save/Assign_162"
  input: "^save/Assign_163"
  input: "^save/Assign_164"
  input: "^save/Assign_165"
  input: "^save/Assign_166"
  input: "^save/Assign_167"
  input: "^save/Assign_168"
  input: "^save/Assign_169"
  input: "^save/Assign_17"
  input: "^save/Assign_170"
  input: "^save/Assign_171"
  input: "^save/Assign_172"
  input: "^save/Assign_173"
  input: "^save/Assign_174"
  input: "^save/Assign_175"
  input: "^save/Assign_176"
  input: "^save/Assign_177"
  input: "^save/Assign_178"
  input: "^save/Assign_179"
  input: "^save/Assign_18"
  input: "^save/Assign_180"
  input: "^save/Assign_181"
  input: "^save/Assign_182"
  input: "^save/Assign_183"
  input: "^save/Assign_184"
  input: "^save/Assign_185"
  input: "^save/Assign_186"
  input: "^save/Assign_187"
  input: "^save/Assign_188"
  input: "^save/Assign_189"
  input: "^save/Assign_19"
  input: "^save/Assign_190"
  input: "^save/Assign_191"
  input: "^save/Assign_192"
  input: "^save/Assign_193"
  input: "^save/Assign_194"
  input: "^save/Assign_195"
  input: "^save/Assign_196"
  input: "^save/Assign_197"
  input: "^save/Assign_198"
  input: "^save/Assign_199"
  input: "^save/Assign_2"
  input: "^save/Assign_20"
  input: "^save/Assign_200"
  input: "^save/Assign_201"
  input: "^save/Assign_202"
  input: "^save/Assign_203"
  input: "^save/Assign_204"
  input: "^save/Assign_205"
  input: "^save/Assign_206"
  input: "^save/Assign_207"
  input: "^save/Assign_208"
  input: "^save/Assign_209"
  input: "^save/Assign_21"
  input: "^save/Assign_210"
  input: "^save/Assign_211"
  input: "^save/Assign_212"
  input: "^save/Assign_213"
  input: "^save/Assign_214"
  input: "^save/Assign_215"
  input: "^save/Assign_216"
  input: "^save/Assign_217"
  input: "^save/Assign_218"
  input: "^save/Assign_219"
  input: "^save/Assign_22"
  input: "^save/Assign_220"
  input: "^save/Assign_221"
  input: "^save/Assign_222"
  input: "^save/Assign_223"
  input: "^save/Assign_224"
  input: "^save/Assign_225"
  input: "^save/Assign_226"
  input: "^save/Assign_227"
  input: "^save/Assign_228"
  input: "^save/Assign_229"
  input: "^save/Assign_23"
  input: "^save/Assign_230"
  input: "^save/Assign_231"
  input: "^save/Assign_232"
  input: "^save/Assign_233"
  input: "^save/Assign_24"
  input: "^save/Assign_25"
  input: "^save/Assign_26"
  input: "^save/Assign_27"
  input: "^save/Assign_28"
  input: "^save/Assign_29"
  input: "^save/Assign_3"
  input: "^save/Assign_30"
  input: "^save/Assign_31"
  input: "^save/Assign_32"
  input: "^save/Assign_33"
  input: "^save/Assign_34"
  input: "^save/Assign_35"
  input: "^save/Assign_36"
  input: "^save/Assign_37"
  input: "^save/Assign_38"
  input: "^save/Assign_39"
  input: "^save/Assign_4"
  input: "^save/Assign_40"
  input: "^save/Assign_41"
  input: "^save/Assign_42"
  input: "^save/Assign_43"
  input: "^save/Assign_44"
  input: "^save/Assign_45"
  input: "^save/Assign_46"
  input: "^save/Assign_47"
  input: "^save/Assign_48"
  input: "^save/Assign_49"
  input: "^save/Assign_5"
  input: "^save/Assign_50"
  input: "^save/Assign_51"
  input: "^save/Assign_52"
  input: "^save/Assign_53"
  input: "^save/Assign_54"
  input: "^save/Assign_55"
  input: "^save/Assign_56"
  input: "^save/Assign_57"
  input: "^save/Assign_58"
  input: "^save/Assign_59"
  input: "^save/Assign_6"
  input: "^save/Assign_60"
  input: "^save/Assign_61"
  input: "^save/Assign_62"
  input: "^save/Assign_63"
  input: "^save/Assign_64"
  input: "^save/Assign_65"
  input: "^save/Assign_66"
  input: "^save/Assign_67"
  input: "^save/Assign_68"
  input: "^save/Assign_69"
  input: "^save/Assign_7"
  input: "^save/Assign_70"
  input: "^save/Assign_71"
  input: "^save/Assign_72"
  input: "^save/Assign_73"
  input: "^save/Assign_74"
  input: "^save/Assign_75"
  input: "^save/Assign_76"
  input: "^save/Assign_77"
  input: "^save/Assign_78"
  input: "^save/Assign_79"
  input: "^save/Assign_8"
  input: "^save/Assign_80"
  input: "^save/Assign_81"
  input: "^save/Assign_82"
  input: "^save/Assign_83"
  input: "^save/Assign_84"
  input: "^save/Assign_85"
  input: "^save/Assign_86"
  input: "^save/Assign_87"
  input: "^save/Assign_88"
  input: "^save/Assign_89"
  input: "^save/Assign_9"
  input: "^save/Assign_90"
  input: "^save/Assign_91"
  input: "^save/Assign_92"
  input: "^save/Assign_93"
  input: "^save/Assign_94"
  input: "^save/Assign_95"
  input: "^save/Assign_96"
  input: "^save/Assign_97"
  input: "^save/Assign_98"
  input: "^save/Assign_99"
}
node {
  name: "save/restore_all"
  op: "NoOp"
  input: "^save/restore_shard"
}
library {
  function {
    signature {
      name: "tf_data_structured_function_wrapper_9z4XDFOWUdQ"
      input_arg {
        name: "arg0"
        type: DT_STRING
      }
      output_arg {
        name: "toint32"
        type: DT_INT32
      }
      output_arg {
        name: "toint32_1"
        type: DT_INT32
      }
      output_arg {
        name: "toint32_2"
        type: DT_INT32
      }
      output_arg {
        name: "toint32_3"
        type: DT_INT32
      }
      output_arg {
        name: "parsesingleexample_parsesingleexample"
        type: DT_FLOAT
      }
      output_arg {
        name: "toint32_4"
        type: DT_INT32
      }
      output_arg {
        name: "toint32_5"
        type: DT_INT32
      }
      description: "Wrapper for passing nested structures to and from tf.data functions."
    }
    node_def {
      name: "ParseSingleExample/Const"
      op: "Const"
      device: "/device:CPU:0"
      attr {
        key: "dtype"
        value {
          type: DT_INT64
        }
      }
      attr {
        key: "value"
        value {
          tensor {
            dtype: DT_INT64
            tensor_shape {
              dim {
              }
            }
          }
        }
      }
    }
    node_def {
      name: "ParseSingleExample/Const_1"
      op: "Const"
      device: "/device:CPU:0"
      attr {
        key: "dtype"
        value {
          type: DT_INT64
        }
      }
      attr {
        key: "value"
        value {
          tensor {
            dtype: DT_INT64
            tensor_shape {
              dim {
              }
            }
          }
        }
      }
    }
    node_def {
      name: "ParseSingleExample/Const_2"
      op: "Const"
      device: "/device:CPU:0"
      attr {
        key: "dtype"
        value {
          type: DT_INT64
        }
      }
      attr {
        key: "value"
        value {
          tensor {
            dtype: DT_INT64
            tensor_shape {
              dim {
              }
            }
          }
        }
      }
    }
    node_def {
      name: "ParseSingleExample/Const_3"
      op: "Const"
      device: "/device:CPU:0"
      attr {
        key: "dtype"
        value {
          type: DT_INT64
        }
      }
      attr {
        key: "value"
        value {
          tensor {
            dtype: DT_INT64
            tensor_shape {
              dim {
              }
            }
          }
        }
      }
    }
    node_def {
      name: "ParseSingleExample/Const_4"
      op: "Const"
      device: "/device:CPU:0"
      attr {
        key: "dtype"
        value {
          type: DT_FLOAT
        }
      }
      attr {
        key: "value"
        value {
          tensor {
            dtype: DT_FLOAT
            tensor_shape {
              dim {
              }
            }
          }
        }
      }
    }
    node_def {
      name: "ParseSingleExample/Const_5"
      op: "Const"
      device: "/device:CPU:0"
      attr {
        key: "dtype"
        value {
          type: DT_INT64
        }
      }
      attr {
        key: "value"
        value {
          tensor {
            dtype: DT_INT64
            tensor_shape {
              dim {
              }
            }
          }
        }
      }
    }
    node_def {
      name: "ParseSingleExample/Const_6"
      op: "Const"
      device: "/device:CPU:0"
      attr {
        key: "dtype"
        value {
          type: DT_INT64
        }
      }
      attr {
        key: "value"
        value {
          tensor {
            dtype: DT_INT64
            tensor_shape {
              dim {
              }
            }
          }
        }
      }
    }
    node_def {
      name: "ParseSingleExample/ParseSingleExample"
      op: "ParseSingleExample"
      input: "arg0"
      input: "ParseSingleExample/Const:output:0"
      input: "ParseSingleExample/Const_1:output:0"
      input: "ParseSingleExample/Const_2:output:0"
      input: "ParseSingleExample/Const_3:output:0"
      input: "ParseSingleExample/Const_4:output:0"
      input: "ParseSingleExample/Const_5:output:0"
      input: "ParseSingleExample/Const_6:output:0"
      device: "/device:CPU:0"
      attr {
        key: "Tdense"
        value {
          list {
            type: DT_INT64
            type: DT_INT64
            type: DT_INT64
            type: DT_INT64
            type: DT_FLOAT
            type: DT_INT64
            type: DT_INT64
          }
        }
      }
      attr {
        key: "dense_keys"
        value {
          list {
            s: "input_ids"
            s: "input_mask"
            s: "masked_lm_ids"
            s: "masked_lm_positions"
            s: "masked_lm_weights"
            s: "next_sentence_labels"
            s: "segment_ids"
          }
        }
      }
      attr {
        key: "dense_shapes"
        value {
          list {
            shape {
              dim {
                size: 128
              }
            }
            shape {
              dim {
                size: 128
              }
            }
            shape {
              dim {
                size: 20
              }
            }
            shape {
              dim {
                size: 20
              }
            }
            shape {
              dim {
                size: 20
              }
            }
            shape {
              dim {
                size: 1
              }
            }
            shape {
              dim {
                size: 128
              }
            }
          }
        }
      }
      attr {
        key: "num_sparse"
        value {
          i: 0
        }
      }
      attr {
        key: "sparse_keys"
        value {
          list {
          }
        }
      }
      attr {
        key: "sparse_types"
        value {
          list {
          }
        }
      }
    }
    node_def {
      name: "ToInt32"
      op: "Cast"
      input: "ParseSingleExample/ParseSingleExample:dense_values:0"
      device: "/device:CPU:0"
      attr {
        key: "DstT"
        value {
          type: DT_INT32
        }
      }
      attr {
        key: "SrcT"
        value {
          type: DT_INT64
        }
      }
      attr {
        key: "Truncate"
        value {
          b: false
        }
      }
    }
    node_def {
      name: "ToInt32_1"
      op: "Cast"
      input: "ParseSingleExample/ParseSingleExample:dense_values:1"
      device: "/device:CPU:0"
      attr {
        key: "DstT"
        value {
          type: DT_INT32
        }
      }
      attr {
        key: "SrcT"
        value {
          type: DT_INT64
        }
      }
      attr {
        key: "Truncate"
        value {
          b: false
        }
      }
    }
    node_def {
      name: "ToInt32_2"
      op: "Cast"
      input: "ParseSingleExample/ParseSingleExample:dense_values:2"
      device: "/device:CPU:0"
      attr {
        key: "DstT"
        value {
          type: DT_INT32
        }
      }
      attr {
        key: "SrcT"
        value {
          type: DT_INT64
        }
      }
      attr {
        key: "Truncate"
        value {
          b: false
        }
      }
    }
    node_def {
      name: "ToInt32_3"
      op: "Cast"
      input: "ParseSingleExample/ParseSingleExample:dense_values:3"
      device: "/device:CPU:0"
      attr {
        key: "DstT"
        value {
          type: DT_INT32
        }
      }
      attr {
        key: "SrcT"
        value {
          type: DT_INT64
        }
      }
      attr {
        key: "Truncate"
        value {
          b: false
        }
      }
    }
    node_def {
      name: "ToInt32_4"
      op: "Cast"
      input: "ParseSingleExample/ParseSingleExample:dense_values:5"
      device: "/device:CPU:0"
      attr {
        key: "DstT"
        value {
          type: DT_INT32
        }
      }
      attr {
        key: "SrcT"
        value {
          type: DT_INT64
        }
      }
      attr {
        key: "Truncate"
        value {
          b: false
        }
      }
    }
    node_def {
      name: "ToInt32_5"
      op: "Cast"
      input: "ParseSingleExample/ParseSingleExample:dense_values:6"
      device: "/device:CPU:0"
      attr {
        key: "DstT"
        value {
          type: DT_INT32
        }
      }
      attr {
        key: "SrcT"
        value {
          type: DT_INT64
        }
      }
      attr {
        key: "Truncate"
        value {
          b: false
        }
      }
    }
    ret {
      key: "parsesingleexample_parsesingleexample"
      value: "ParseSingleExample/ParseSingleExample:dense_values:4"
    }
    ret {
      key: "toint32"
      value: "ToInt32:y:0"
    }
    ret {
      key: "toint32_1"
      value: "ToInt32_1:y:0"
    }
    ret {
      key: "toint32_2"
      value: "ToInt32_2:y:0"
    }
    ret {
      key: "toint32_3"
      value: "ToInt32_3:y:0"
    }
    ret {
      key: "toint32_4"
      value: "ToInt32_4:y:0"
    }
    ret {
      key: "toint32_5"
      value: "ToInt32_5:y:0"
    }
  }
  function {
    signature {
      name: "tf_data_structured_function_wrapper_52oRgbbAY9U"
      input_arg {
        name: "arg0"
        type: DT_STRING
      }
      output_arg {
        name: "tfrecorddataset"
        type: DT_VARIANT
      }
      description: "Wrapper for passing nested structures to and from tf.data functions."
      is_stateful: true
    }
    node_def {
      name: "compression_type"
      op: "Const"
      device: "/device:CPU:0"
      attr {
        key: "dtype"
        value {
          type: DT_STRING
        }
      }
      attr {
        key: "value"
        value {
          tensor {
            dtype: DT_STRING
            tensor_shape {
            }
            string_val: ""
          }
        }
      }
    }
    node_def {
      name: "buffer_size"
      op: "Const"
      device: "/device:CPU:0"
      attr {
        key: "dtype"
        value {
          type: DT_INT64
        }
      }
      attr {
        key: "value"
        value {
          tensor {
            dtype: DT_INT64
            tensor_shape {
            }
            int64_val: 262144
          }
        }
      }
    }
    node_def {
      name: "TFRecordDataset"
      op: "TFRecordDataset"
      input: "arg0"
      input: "compression_type:output:0"
      input: "buffer_size:output:0"
      device: "/device:CPU:0"
    }
    ret {
      key: "tfrecorddataset"
      value: "TFRecordDataset:handle:0"
    }
  }
  function {
    signature {
      name: "tf_data_structured_function_wrapper_rn3e6kArW78"
      input_arg {
        name: "arg0"
        type: DT_STRING
      }
      output_arg {
        name: "flatmapdataset"
        type: DT_VARIANT
      }
      description: "Wrapper for passing nested structures to and from tf.data functions."
      is_stateful: true
    }
    node_def {
      name: "flat_filenames/shape"
      op: "Const"
      device: "/device:CPU:0"
      attr {
        key: "dtype"
        value {
          type: DT_INT32
        }
      }
      attr {
        key: "value"
        value {
          tensor {
            dtype: DT_INT32
            tensor_shape {
              dim {
                size: 1
              }
            }
            int_val: -1
          }
        }
      }
    }
    node_def {
      name: "flat_filenames"
      op: "Reshape"
      input: "arg0"
      input: "flat_filenames/shape:output:0"
      device: "/device:CPU:0"
      attr {
        key: "T"
        value {
          type: DT_STRING
        }
      }
      attr {
        key: "Tshape"
        value {
          type: DT_INT32
        }
      }
    }
    node_def {
      name: "TensorSliceDataset"
      op: "TensorSliceDataset"
      input: "flat_filenames:output:0"
      device: "/device:CPU:0"
      attr {
        key: "Toutput_types"
        value {
          list {
            type: DT_STRING
          }
        }
      }
      attr {
        key: "output_shapes"
        value {
          list {
            shape {
            }
          }
        }
      }
    }
    node_def {
      name: "FlatMapDataset"
      op: "FlatMapDataset"
      input: "TensorSliceDataset:handle:0"
      device: "/device:CPU:0"
      attr {
        key: "Targuments"
        value {
          list {
          }
        }
      }
      attr {
        key: "f"
        value {
          func {
            name: "tf_data_structured_function_wrapper_52oRgbbAY9U"
          }
        }
      }
      attr {
        key: "output_shapes"
        value {
          list {
            shape {
            }
          }
        }
      }
      attr {
        key: "output_types"
        value {
          list {
            type: DT_STRING
          }
        }
      }
    }
    ret {
      key: "flatmapdataset"
      value: "FlatMapDataset:handle:0"
    }
  }
}
versions {
  producer: 27
  min_consumer: 12
}
